checkpoint_actor.pth (torch_old, 170457 bytes, 10 tensors)

bn0.weight f4 [33]
00000000: 822b 963f ee6d 973f dafe 8c3f 7b97 3f3e
00000010: 70a4 e03d ceb9 f73d e136 223e 3e20 cd3e
00000020: 026a 133f 56a0 143e 7f45 503f f7dc 0e3f
00000030: 8485 2d3f 4dcf c33f b41b 9c3f d674 b53f
00000040: 97e5 203f c6c0 dd3e fcac a43e cb8e 133f
00000050: a836 cb3e d454 bd3e 4891 b23e 8587 a13f
00000060: 1017 0f3f 0780 7d3f 0aeb cf3f 0426 4c3e
00000070: edc5 d93f 80dd c93b 1499 733f 0025 9a3d
00000080: f200 0a40
1.1732028 1.1830423 1.1015275 0.18710129 0.10968864 0.12095986 0.15841247 0.4006366
0.5758363 0.14514288 0.8135604 0.55805916 0.67781854 1.5297638 1.2195954 1.417628
0.62850326 0.43311137 0.32163227 0.5763976 0.39690137 0.3697878 0.34876466 1.2619482
0.55894566 0.9902348 1.6243603 0.19936377 1.7013527 0.006160438 0.95155454 0.075265884
2.1563077

bn0.bias f4 [33]
00000000: cbe5 a4bd 23d3 c3be fbba 3a3c d6cb fd3d
00000010: 432c f93e da73 eabc 9ed6 d7be 6589 a3bd
00000020: f82b 143e cd6a b5be 131c 6bbd 3a92 83be
00000030: 65bd dabd 2654 a9bd 920b b0bd 88fa a63b
00000040: 8052 80bd 1369 7c3e 9a38 043c 29eb 42be
00000050: fc75 8fbe bd9a 52bd fd1c 53bd eb49 34be
00000060: 0078 ae3d ead1 473d 8226 ca3c d440 d53e
00000070: 7e47 8e3d f7ed 91be 5748 d7be 5d51 71be
00000080: 7818 a23b
-0.08051642 -0.38247022 0.011397119 0.12392394 0.48666582 -0.028619695 -0.42155927 -0.0798519
0.14469898 -0.35433045 -0.05739982 -0.256975 -0.106806554 -0.08268003 -0.08595957 0.0050957836
-0.062657356 0.24649458 0.0080701355 -0.19035019 -0.28019702 -0.0514171 -0.051541317 -0.17606322
0.08518982 0.048784174 0.024676565 0.41651022 0.0694723 -0.28501865 -0.42047378 -0.23566194
0.0049467646

bn0.running_mean f4 [33]
00000000: e237 8d3f 93c2 2bc0 5a69 05bf 8773 633f
00000010: bba9 123e fca1 843c 9c1b a8bd 8cfe 0339
00000020: a40c 4f3b 65a0 913b 935e 1b3c 0e98 a3b9
00000030: d3e3 99bb 46db 4b3f 6697 4cc0 80b3 56be
00000040: f33d 7bbd 45e3 623d ddf4 2dbd 3f6c 4dbe
00000050: b843 a53d 7848 563d 97dc 3d3d 77c3 08bc
00000060: 4e6a d23d 40d1 33bc 97ce ba3c fcff 7fbf
00000070: 3bcd 4b3d 0000 0000 fcff 7f3f 0000 0000
00000080: ba3a 0abc
1.1032679 -2.6837509 -0.5211388 0.88848156 0.1432256 0.016190521 -0.08208391 0.0001258796
0.0031593228 0.0044441693 0.0094829975 -0.00031203072 -0.004696348 0.7963146 -3.1967406 -0.20966911
-0.061338376 0.055392522 -0.042469848 -0.20060824 0.08069557 0.052315205 0.04635295 -0.008347384
0.10274182 -0.010975182 0.022803588 -0.99999976 0.04975627 0.0 0.99999976 0.0
-0.008436853

bn0.running_var f4 [33]
00000000: 645c 6140 e719 083f 18da 5340 20d1 023d
00000010: c9dc 793d 6c53 703c a995 9a3d 5de5 803e
00000020: f5e5 383d 835a c73d 9864 de3f 5527 873f
00000030: 272d f83f 8938 9241 28db de3f 6cbd 8f41
00000040: 06d7 043e 7949 753e f486 e93d 2c91 ef3e
00000050: dd4f 2140 5483 fd3e a544 0a3f e39a df40
00000060: 3e02 2540 da1e ee40 bf7c fe41 0400 0000
00000070: 66cf 0042 0400 0000 0400 0000 0400 0000
00000080: 0518 ab3e
3.521264 0.53164524 3.3101864 0.03193772 0.061001573 0.014668327 0.07548077 0.2517499
0.04514118 0.097340606 1.7374449 1.0558878 1.9388779 18.277605 1.7410631 17.967491
0.1297265 0.23953809 0.114026934 0.46790445 2.5204995 0.49514258 0.54010993 6.987657
2.5782619 7.441266 31.810911 6e-45 32.202538 6e-45 6e-45 6e-45
0.33416763

fc1.weight f4 [256, 33]
00000000: 30e5 8cbc 7cc6 153f dbca b8be 5596 2b3e
00000010: 5209 a83e 4dd7 75bd 1fe5 dcbe 364c 86bd
00000020: d8c6 02bf c46a 0cbf b6ed 8abe 0c5a ee3d
00000030: 78d1 b33e 3af8 1b3c f192 1dbe 38c7 113f
00000040: 6be4 c7be a34e 95bd e23b f03c fd19 ba3d
00000050: 40b4 953d f368 8e3e 64b9 643e ea84 ad3d
00000060: 8e92 20bf 8e8b 39bc 966d a4be 528c c83d
00000070: 99b1 563e 7d83 31bd e422 7cbe 6303 d6bd
00000080: 6b00 3fbf 1798 afbe ae83 5c3d 51e6 08be
00000090: 0208 413e 8c65 033d a699 26be 3524 b2be
000000a0: fbb1 a4bb 8704 76be a119 c43e ae66 e53d
000000b0: 315c 63be 831d 6ebe efc6 f6be 5b4d 2b3e
000000c0: 0c33 5a3e e3d0 e7bd cac7 c1bd 7e30 993e
000000d0: 4e68 d43e 7001 f5be a74b d4be 7678 ac3e
000000e0: 77d0 afbe 69ad b0be 3e4b ab3e fa1b ecbe
000000f0: 376f 033f 42df 36bf 76fa 70be ddc7 4ebe
00000100: 04c0 523e ae67 ec3e 5ce1 d5bd e8c8 17be
00000110: 180c c5be ee1f 103e ec14 15be 7c9e 73be
00000120: 34f3 723e 48d1 ddbe e671 b23d 01ad d93b
00000130: 12ce 2abe b9e3 78be f6cb babe 7baa e9be
00000140: 46f3 4e3e ee5c c53e 3c26 16be 5f36 443d
00000150: 6d6d 0cbf 711d 5b3e 6f6a 093c 7a83 95be
00000160: 0f36 c63e bd38 0abe 43a2 bebc 65e7 953d
00000170: d333 753d 6e27 953d a137 9a3e 8171 37be
00000180: bbe8 d83b ceb2 8c3c 355d 433f 5366 babd
00000190: e559 153e f8ab 933e 534c 00bd 79e7 43be
000001a0: b384 a3be 15f8 5b3e c2f2 9c3e 9662 453e
000001b0: 83ae 77be 521e 96be 0b36 153e a1a6 d0be
000001c0: 23ba 3fbe 3703 bb3e 0666 7d3e bd6b 893e
000001d0: dbb6 84bd 4d49 8cbe 03d7 24be 820c e93e
000001e0: 06fe 68bc ba9a f73c c838 56be fb72 c4be
000001f0: 9b52 fb3d 2599 39be c0b5 8d3d 4532 083f
00000200: 1404 36be 74c6 3c3e 807b 0d3e 77bf 04bf
00000210: 20a6 83bd ac6b 9c3b 022c 42bd 36f8 073e
00000220: 355d 2d3e f1ab e43d 019e 85be 5d2a 50be
00000230: b227 a13e 111a e0be 80d2 013e f757 48be
00000240: 2ded 8cbe 46b6 78bd 907e 67be 24d6 87be
00000250: acdd 333e d463 aabc 78b9 3a3e 6ba0 9e3b
00000260: 6174 f1bd f1d8 97be a0f9 443d 36db e7bb
00000270: 3364 2ebe 0e4e ee3d c066 a03d 5ab6 4d3f
00000280: 45b5 f13e 93c9 37bf 0ae4 95be 9226 24be
00000290: e0c5 a9bc bbfa c73e 793a fbbe 89e8 4dbd
000002a0: eb86 9f3d 1a8c efbe 1b0e cf3e dc45 1dbe
000002b0: 54b7 c63c 5e91 cdbd bf78 0fbc ba11 333e
000002c0: b700 f13c f3eb 5d3e 9c6a 153f 4f8e 983d
000002d0: a3ac a8bc 3148 3c3d 080b eebe 9919 aebe
000002e0: 2491 12bf 2136 4d3e 904b 40bd cefc e4be
000002f0: b4ba 983e 89bb af3e 8eea c1be 2fbf 95bd
00000300: 1ef8 0cbe e33b b1be d576 0bbe dc51 f2be
00000310: 16ef 1fbe 3eb9 1d3e 72a2 093e 8c5f 3fbe
00000320: 19b2 80be 6062 2abf 9785 cdbe 6dc2 aebd
00000330: 7d3b ab3e 8d40 d33e 0cc0 a8bd 2a1c 2a3d
00000340: b11a bbbc 2109 93be feb3 fd3d 436a 3f3e
00000350: 80bb 413c 45cc 623e 46b3 3f3f ed7f edbd
00000360: 269b 7cbe d75f 823e b021 6d3e 8360 e2bc
00000370: 9e76 933e 7968 86bd 46dc 76bd ab9c 4b3e
00000380: 2f51 d23d 9db4 8bbe 08bd a2be 82af 613e
00000390: 9ce7 7c3e 891c 1c3e 10e1 013f 84f1 e03e
000003a0: 14bb e73d 5366 573f 125e 2d3e fc6c c5bc
000003b0: 7929 693e a134 9abd 4a30 cdbe 603a 823d
000003c0: afc7 20bf 8a8a 823e 0f3d 113f 24f5 093d
000003d0: fe1c cabe c8ce b63e 3d5e acbe 03c0 2f3f
000003e0: 5aae c7bd 3222 b33e d00f 21be a05b adbe
000003f0: 7d2b e0be 74f4 ac3e cf7e 823e 5591 a7be
-0.017199129 0.5850599 -0.36092266 0.16756566 0.3281961 -0.06001978 -0.43143556 -0.06557505
-0.5108466 -0.5485041 -0.27134484 0.11638269 0.3512075 0.009519631 -0.15388085 0.5694461
-0.39041457 -0.072903894 0.02932543 0.09086988 0.073097706 0.27814445 0.22336346 0.08472617
-0.62723625 -0.011324776 -0.32114857 0.09792389 0.20966186 -0.043338288 -0.24622685 -0.10449865
-0.7461001 -0.34295723 0.053836517 -0.13369109 0.18850711 0.032079265 -0.1626955 -0.3479325
-0.0050260997 -0.24025165 0.38300803 0.11201225 -0.22203137 -0.23253445 -0.4819865 0.16728728
0.21308535 -0.11319139 -0.09461935 0.2991981 0.41485828 -0.4785266 -0.41463968 0.33685654
-0.34338734 -0.345073 0.33455843 -0.46115094 0.51341575 -0.71434414 -0.23533043 -0.2019343
0.2058106 0.4617285 -0.104433745 -0.14822733 -0.3848579 0.1407468 -0.14558762 -0.23790926
0.23725587 -0.4332373 0.08713131 0.006642938 -0.16680172 -0.2430562 -0.36483735 -0.4563788
0.20209989 0.38547462 -0.14663023 0.047903415 -0.5485447 0.2139795 0.008387192 -0.2920187
0.38713118 -0.13498206 -0.023270732 0.07319526 0.059863877 0.07282911 0.30120566 -0.17914392
0.0066195405 0.017175104 0.763141 -0.09101548 0.14585073 0.2884214 -0.03132279 -0.19131269
-0.3193718 0.21481355 0.3065396 0.19275889 -0.24187665 -0.29320008 0.14571397 -0.40752128
-0.1872335 0.3652589 0.2474595 0.2684001 -0.064801894 -0.27399674 -0.16097645 0.45517355
-0.01422072 0.030225147 -0.20920098 -0.38368973 0.12271615 -0.18124826 0.06919432 0.53201705
-0.17774993 0.18435079 0.13816643 -0.5185465 -0.0642817 0.0047735777 -0.04740525 0.13278279
0.16930087 0.11165608 -0.2609711 -0.2032866 0.31475598 -0.43769887 0.12677956 -0.19564806
-0.275247 -0.060720704 -0.22606874 -0.26530564 0.1756503 -0.020799555 0.18234813 0.0048409007
-0.11789776 -0.296577 0.048089623 -0.0070756925 -0.1703041 0.116359815 0.07832098 0.8035637
0.4720861 -0.7179195 -0.29275542 -0.16030338 -0.020724237 0.3905848 -0.4906805 -0.05027059
0.077894054 -0.46786577 0.4044045 -0.1535868 0.02425734 -0.10037492 -0.008756815 0.17487231
0.029419286 0.21672039 0.583658 0.07449018 -0.020590132 0.045967285 -0.4649279 -0.34003904
-0.57252717 0.2004018 -0.046947062 -0.44724125 0.29829943 0.34322765 -0.37874264 -0.07311856
-0.13766524 -0.34616002 -0.1361955 -0.4732808 -0.15618548 0.15402696 0.13440874 -0.18688792
-0.25135878 -0.6655636 -0.40140983 -0.085331775 0.33443823 0.41260186 -0.08239755 0.041530766
-0.022839876 -0.28717902 0.123878464 0.1869288 0.011824489 0.22148235 0.74882925 -0.115966655
-0.2466856 0.25463745 0.23157382 -0.027633911 0.28801435 -0.06562895 -0.060268663 0.19883983
0.10269391 -0.27286234 -0.31784844 0.22039607 0.24697727 0.1524526 0.50734043 0.43934262
0.11314979 0.8414051 0.16930416 -0.02409982 0.22769727 -0.075295694 -0.40075904 0.063587904
-0.62804693 0.25496322 0.56733793 0.03368105 -0.39475244 0.35704637 -0.33665648 0.6865236
-0.09750052 0.34987026 -0.15728688 -0.33858967 -0.4378318 0.33780253 0.25487372 -0.32728067

fc1.bias f4 [256]
00000000: 561b c2bc 865b a13d a683 733c 26e5 ebbc
00000010: dd14 d73c feeb f03d 9640 8bbd 5b22 0c3e
00000020: 9bb8 b23e 2b84 c23c f434 243e 1e8b e93a
00000030: a6a2 663d 7aaf 6c3e 446a 913d e55c 7e3e
00000040: 44a4 773e c0be bcbd 9762 c93c 31bd 30bc
00000050: 461b 573e 207c 9e3e e2fa 4c3e 9bf8 a43e
00000060: 34d6 3b3e 3f8b 4c3c efe4 f93d 7481 0b3e
00000070: af8c 2139 3900 d53d 71e4 633e b0cf 213d
00000080: f8fb f73d a1a4 283d e218 9b3d 2a5d 843e
00000090: 840e c53e c523 423e dba7 303e 394a e83d
000000a0: f48b 5e3e 4fb9 17be ff7d 953d 045c 9b3e
000000b0: 4853 66be 1e81 aebd be3e 813d bee9 0a3e
000000c0: 9e50 a63d 533e b93d 5e02 72bd f6a8 1a3e
000000d0: ba01 093e 1082 0fbe 142e e63d 79db b1bd
000000e0: cd2b 9c3d eb56 a43e 7f2e b7bd a8e9 293d
000000f0: 51b5 b43d d193 d23d 44a3 693e e9d2 293e
00000100: e30b febc 1f29 3a3e 40b9 69bd c352 95bd
00000110: fddf 323e 9d86 c13d ed28 483e fb10 de3d
00000120: e73b bdbc 5e7f 2b3e ad2e 21be f455 f6bc
00000130: 979d d03e 8d94 a03d 5002 9d3e bd1c fb3d
00000140: ef8a 3a3e 70ca 9e3e 9b27 273e c0ea 3a3d
00000150: d7f4 183d f445 b53e d270 5c3d 8e10 1cbc
00000160: 5ade 0f3e 1fa6 a8bd 0827 75bd b7d5 60be
00000170: 159d 03be 0606 8f3d c4a7 ad3e 835c 313d
00000180: c1ae 3ebe 3af9 ac3d 7144 ea3c a34e e93d
00000190: 4236 ef3d 016d cebd fa42 2c3e 018a a93e
000001a0: fffc 7d3e 3eca 1b3e 7f75 9f3e 2135 6f3e
000001b0: 8b90 26bd 2f97 983c 9186 833e 8566 da3d
000001c0: 533c e23d c919 813d 9b0b cf3d 4b94 03bd
000001d0: 9d52 b7bd bd05 eb3d 944c 11bd ea1b 3d3e
000001e0: e6cb a0bd b686 223d bde4 7b3e b92c 24bd
000001f0: 2f1e 28be 6fbe 253d 3317 ef3d 1578 acbd
00000200: 37c7 673e 35c4 103d 95a3 7d3e 76d6 23be
00000210: 4a7d 673e 1c1a 4e3d 8405 efbd 6395 a1bd
00000220: 62db e43d fe53 853d 83e1 89bc 941e 8a3e
00000230: bda7 793e 1e11 813d 64d2 11be 153d a53e
00000240: 508f 823e ff27 a33d cfb7 1c3e 78bc bf3d
00000250: 4991 88bc d00c 0abe fcb3 4c3e a6cc 5a3e
00000260: e163 e23d 0efb 19be e8d5 82bc b465 b33d
00000270: b2ad ce3c 7d60 013d f3a6 c9bc cae2 4ebd
00000280: a5d6 953e 7cbd cb3d 1424 483e 0f52 20be
00000290: 729a 4e3d d35f 83bd 785e f13d 22cf ea3d
000002a0: e807 423c af7a 143d 4282 a43d 893c 743e
000002b0: f228 583e 4a89 513e 0f97 a33e a434 ba3d
000002c0: d204 ab3d 4e0e 973c d357 6a3b dc8b 753e
000002d0: 9a1b c43d 82c8 853d cd43 8b3e 0f0e b93d
000002e0: 497f 1c3d c3dd 9b3e 19ba 78be f8d5 243d
000002f0: 213b 393e a79e b33e db6f 2d3c efcc 8a3d
00000300: 42fe 603a 9424 71be 16db 32bd b3c5 19be
00000310: f66b 583e 77fb 113d 8465 803e 339c 8c3e
00000320: e1ea 573e cba5 cb3d b844 3a3e eafc 0dbe
00000330: c8bf 7b3e dd23 d13d 5c71 023b d6fe 5a3d
00000340: 8ab0 183e be21 633d 38ee c73d b10f 593e
00000350: e95a 183e 13cd 893e f75a 6a3e 935a 86bd
00000360: ef0d 88bc 580a 7a3d ad3d dfbd 4673 683e
00000370: 1d2f 1e3d c724 d73c 1487 9d3e acde a2be
00000380: edbb ac3d 689d 923d 6f71 1b3e 94a8 133e
00000390: 1f5c e2bd 571f 283e 4afb c7bd 0ab9 513e
000003a0: f193 b73e b698 e23a 5739 3abd 565d e93d
000003b0: 5899 8d3d 3391 973d c3ff 1c3e d4aa 7dbe
000003c0: 518c 473d 0bc2 093e e3cc 603e ea23 8fbd
000003d0: 8bc3 153e b95f 9a3e 6b89 843d adda 9abe
000003e0: 0c3e 3cbe 4b16 6b3d 915b 273e aebb 2c3e
000003f0: e151 07bd acf9 02be 8c7c e7bd b034 3b3e
-0.023694675 0.07878785 0.01486293 -0.02879579 0.026255066 0.11763762 -0.06799428 0.1368498
0.34906468 0.023744663 0.16035825 0.0017817949 0.056307457 0.23113814 0.07100347 0.24840124
0.24183756 -0.0921607 0.024583144 -0.010787294 0.21006498 0.30954075 0.20017579 0.3222092
0.18343431 0.012484371 0.12201869 0.13623601 0.00015406565 0.10400433 0.22255112 0.039504707
0.12108606 0.041172627 0.075731054 0.2585233 0.38487637 0.18958957 0.17251532 0.11342282
0.21733075 -0.14816783 0.072994225 0.3034364 -0.22492707 -0.08520721 0.06310795 0.13565728
0.08120845 0.090450905 -0.05908429 0.15103516 0.13379565 -0.14014459 0.112392575 -0.08684439
0.07625542 0.32097563 -0.08944415 0.041482598 0.08823646 0.102821 0.22816187 0.16584362
-0.031011527 0.18179749 -0.057061434 -0.07291176 0.17468257 0.094495036 0.19546862 0.108430825
-0.023099853 0.16747805 -0.15740462 -0.030070283 0.40745232 0.07840834 0.30665827 0.12261341
0.18217061 0.31013823 0.16323702 0.04563403 0.037342872 0.35404932 0.05381853 -0.009525431
0.14049664 -0.0823481 -0.059851676 -0.21956526 -0.12852891 0.06983571 0.33917058 0.043301117
-0.18621351 0.08445974 0.028597089 0.11391952 0.11680271 -0.100793846 0.16822425 0.331131
0.24803542 0.15213868 0.3114433 0.23360111 -0.04066519 0.018626777 0.25688604 0.10664085
0.11046662 0.06303746 0.101096354 -0.032123845 -0.08951304 0.11475704 -0.03547342 0.1846768
-0.078513905 0.03967925 0.24598975 -0.040081713 -0.16417764 0.040464815 0.11674347 -0.08421341
0.22634588 0.035343368 0.24769433 -0.15999779 0.22606388 0.05031787 -0.11670974 -0.078898214
0.111746565 0.06510161 -0.016831165 0.26976454 0.24380393 0.06302093 -0.14240414 0.32273164
0.25499964 0.07966613 0.15304492 0.093621194 -0.01667084 -0.1348145 0.19990534 0.2136713
0.11054207 -0.15037176 -0.01597114 0.08759633 0.025229309 0.03158616 -0.02461574 -0.05050925
0.29265323 0.09948251 0.19545013 -0.15656303 0.05044026 -0.064147614 0.117855966 0.11465289
0.011842705 0.036249813 0.08032657 0.23851217 0.2110937 0.20462528 0.31951186 0.09092072
0.08350529 0.018439438 0.0035757914 0.23979133 0.09575577 0.065323845 0.27200165 0.090358846
0.038207326 0.30442628 -0.2428974 0.04024312 0.18088962 0.3508198 0.01058575 0.06777369
0.0008582809 -0.2354911 -0.043665968 -0.15016823 0.21134934 0.035640206 0.2507745 0.2746292
0.21085693 0.09943732 0.18190277 -0.1386601 0.24584877 0.102119185 0.0019903993 0.053465687
0.14911094 0.0554521 0.097622335 0.21197392 0.1487843 0.26914272 0.22886263 -0.065602444
-0.016608207 0.06104502 -0.109004356 0.22700223 0.03861915 0.026262654 0.3076712 -0.3181051
0.084342815 0.07158929 0.1517999 0.14419776 -0.11052727 0.16418205 -0.097647265 0.20480743
0.35855058 0.0017287943 -0.04546484 0.113947555 0.069140136 0.074007414 0.1533194 -0.24772197
0.0487178 0.13452928 0.21953158 -0.06989272 0.14625375 0.30151156 0.06471523 -0.3024496
-0.18383044 0.057394307 0.16343524 0.16868469 -0.03303707 -0.12790555 -0.11303052 0.18281817

fc2.weight f4 [128, 256]
00000000: 8895 ccbc 7972 a03d a40d ecbd 734f 3cbd
00000010: 7512 503e 1306 9dbe 18da 5fbe 4100 f2bd
00000020: cd2d c6bd a460 973d fffc 013e 3ae4 d23c
00000030: 9972 21bd e3dc c9bd 9e83 f53d 7d4e 96bd
00000040: 0cfa d33e 4a7e 05be 8973 813e 4a9f 2abe
00000050: 5371 503e e1dc 66bc f52d 8cbe 9529 d13d
00000060: 841a 27bd ea56 70be d5e4 d7bd d38a 09be
00000070: 3c5b 83be 69ee 9cbb bc22 c3bd 60c2 87bd
00000080: e811 053c 03ff 96be 1e8e 6fbe e194 063e
00000090: c6fb 9fbd ad68 123e d804 3cbe e612 71be
000000a0: 079f 67be 9210 83be a920 aa3c 8d39 d7bd
000000b0: 5bb3 10be 5752 a8bc 9567 063e 8947 cfbd
000000c0: 99c9 863d 63ab 3ebe 018c db3d 84e2 9ebe
000000d0: 6f1e a0bd b064 7d3e 3075 1bbe eb74 31bd
000000e0: e621 1bbd 5ab2 d23d fad8 10bd ff6e c3be
000000f0: b53b 80bd d6e5 63bd d315 efbe e87a 19be
00000100: 516b d9bc 6d07 23be 5e48 efbd 4a3d fa3d
00000110: 8100 323e b0df 23be 991e f63d a35c 203e
00000120: 9d46 07be c56e 4e3e 81f5 8c3d 3a21 8ebd
00000130: 9077 1fbc 6f7b 5d3e 2e55 93be 1a60 aa3e
00000140: 6f9e 813c 2042 21bd e1a6 243e 3463 02be
00000150: a387 e5be 8c51 bebd 6518 223e faac 683d
00000160: 701d e53d f033 50be 0db8 1c3e b30c a73d
00000170: 0944 91bc c7ea 07be 8fb2 6c3d 98e7 79be
00000180: 96b0 d7bc b3d0 433e 2977 79be 5d65 b33d
00000190: 54d4 a6bd 194a 183a 4207 a33d e11d b4bd
000001a0: 791f 3cbd 1600 80be 7838 cebe e473 463e
000001b0: 7986 903d eae9 9fbe d0ec 8c3e 098b a53e
000001c0: d2f5 bebd 9928 cabd e30b 5ebe e95f f2bd
000001d0: 7c53 8dbe e297 123c 2062 fabd f0d8 c8bd
000001e0: 48e5 7d3d ada6 143e 51d2 353e 2e72 90be
000001f0: b4c7 81be a622 8abe 65b3 37bd 016e 30bd
00000200: 7151 37bd fab4 1b3d f578 d43d 528c 033e
00000210: 946a 2c3e a02e 93bd 71ac f1bb a5a5 75be
00000220: e41b 153e 322c 9b3d 654a 363d 76c9 d3bd
00000230: 64c8 93bd f6c8 513d 1adb f53d 2091 b4bd
00000240: 7826 a1bb 3053 19be 356b 02bd fdcc 93bc
00000250: 9d76 083e 6a8c 0dbd 7ab8 46be dc36 803d
00000260: b59a febd 36b5 a0bd 7c61 f4be ac91 8fbe
00000270: bf5b 2d3e 30e1 7fbd 3d9d e9bc 481c a4be
00000280: 767d f9bd 9958 07be 6923 fd3d 8923 183e
00000290: 7ab8 7ebd a93f 7f3d 3a63 81be 6126 36bc
000002a0: 1f9e 483c 8f63 1abe 2fa3 adba 23e4 d3bc
000002b0: a90f 913d 319b 833d d3a9 c9be f0d2 25be
000002c0: 0310 1bbe 7a35 a43d d15b 843e e1ef 03be
000002d0: 12ac c83d 8231 2b3e cf15 68bc c845 23be
000002e0: 14a7 5e3e 2de3 423d 8796 24be 77cc aabe
000002f0: 5f4b 293e 7bd1 fc3d 8597 293e aa3c c63d
00000300: 50d2 e7bd 1454 1d3e 283a f63d 787c 8abe
00000310: 7bcc b43d 609b ab3d 3459 4cbd 8dd5 1d3b
00000320: caf1 8fbd f30b b6be e086 693e bdac f0bd
00000330: 37a4 4f3e b67f 97be 9909 ce3d c9c5 ffbd
00000340: 380b dcbc 26b5 273d 7392 19be aa49 15be
00000350: 757f db3d a790 63be 52b7 1a3d a582 363e
00000360: b9dc 0c3e f602 433e 65f6 d93d 058f 803d
00000370: cc17 6d3d 533e c23e e2d8 69be 6fc9 5ebe
00000380: 7709 513d 37e4 2ebe 51c4 40be 742a 9ebe
00000390: b46c edbd 5f6c 41be 6252 ab3c 2768 a73b
000003a0: e12f 8e3a 57ed bd3d ac16 e4bd 9afc 4c3e
000003b0: 1be1 d8be 2bfb c53d 1649 0d3e b8ad 4a3d
000003c0: 73c4 fbbc a183 293d ba3e a63a 461d c33b
000003d0: 47a7 96be a37e 3e3e 07d0 8b3e f3b9 8cbd
000003e0: 1c36 dabd e532 6abe e125 213e 5cf9 b03c
000003f0: 39c9 1abb 93b6 a13d 296f 963c b19b e93d
-0.024973646 0.07834334 -0.11526039 -0.045974206 0.20319541 -0.30668697 -0.2186054 -0.11816455
-0.096767046 0.073914796 0.12694167 0.025743593 -0.03941593 -0.09856584 0.119879946 -0.07339189
0.41401708 -0.13036457 0.2528346 -0.16662326 0.2035573 -0.014090748 -0.27378812 0.10213009
-0.04079677 -0.23470655 -0.10541693 -0.13431863 -0.25655544 -0.004789163 -0.095281094 -0.06628871
0.008121945 -0.29491434 -0.23394057 0.1314273 -0.07811694 0.14297743 -0.18361223 -0.23542365
-0.22619258 -0.2559858 0.020767527 -0.10509024 -0.14130919 -0.020547075 0.13125451 -0.10121066
0.065814205 -0.18620066 0.10720063 -0.31032193 -0.07818305 0.2474544 -0.15181422 -0.043324392
-0.037874125 0.10287924 -0.035363175 -0.3817062 -0.06261388 -0.05563911 -0.46696338 -0.14988291
-0.02654043 -0.15920801 -0.11683725 0.12218721 0.17383005 -0.16003299 0.12017555 0.15660338
-0.1321053 0.20159443 0.06882764 -0.06939931 -0.009733096 0.21629117 -0.28775924 0.33276445
0.015822617 -0.039369702 0.16079284 -0.12733155 -0.44830045 -0.092928976 0.15829618 0.05680559
0.111872554 -0.20332313 0.15304585 0.08156719 -0.017732637 -0.13273154 0.057787474 -0.24404752
-0.02632932 0.19122581 -0.24361862 0.08759568 -0.08145967 0.0005809381 0.07960369 -0.087947614
-0.045928452 -0.25000066 -0.40277457 0.19380146 0.070568986 -0.3123315 0.27524424 0.32332638
-0.0932423 -0.09871025 -0.21684222 -0.118347 -0.27602756 0.0089473445 -0.12225747 -0.098070025
0.061986238 0.14516707 0.1775601 -0.28212112 -0.25347674 -0.2697956 -0.04484882 -0.043073658
-0.044755403 0.03801439 0.10374633 0.12846497 0.16837531 -0.071866274 -0.007375293 -0.2398897
0.1456142 0.07576789 0.044504542 -0.1034116 -0.07215956 0.051217042 0.12004681 -0.08816743
-0.004917916 -0.1497314 -0.03184052 -0.018042082 0.13326497 -0.034557737 -0.1940631 0.062604636
-0.12431852 -0.07847063 -0.47730625 -0.28040826 0.1692953 -0.062470615 -0.02851736 -0.32052827
-0.12182133 -0.13217391 0.123602696 0.14857306 -0.06218765 0.06231657 -0.25271016 -0.011117549
0.01224473 -0.15077041 -0.0013247485 -0.02586562 0.07083065 0.06426085 -0.39387378 -0.16193748
-0.15142827 0.08018012 0.258513 -0.12884475 0.09798445 0.16718104 -0.014165356 -0.15944588
0.21743423 0.047579933 -0.16073047 -0.3335912 0.16532658 0.12344643 0.16561706 0.096795395
-0.11319411 0.15364105 0.12022811 -0.27048087 0.08828064 0.08379245 -0.04988976 0.0024083585
-0.070285395 -0.35555992 0.22805357 -0.11751697 0.20277487 -0.29589623 0.10060424 -0.124888964
-0.026860818 0.04094424 -0.14997272 -0.14578882 0.1071767 -0.22223149 0.037772484 0.17823274
0.13756074 0.19044098 0.10642699 0.06277279 0.057884023 0.37938175 -0.2283664 -0.21756528
0.051034417 -0.17079245 -0.18824889 -0.30891764 -0.11592999 -0.18888997 0.020913307 0.0051088515
0.0010848009 0.092737846 -0.11137137 0.20018235 -0.42359242 0.09667047 0.13797411 0.049482077
-0.030733323 0.041385297 0.0012683489 0.0059544174 -0.29424497 0.18602996 0.2730715 -0.068714045
-0.10654852 -0.22870977 0.15737106 0.021603279 -0.0023618473 0.078961514 0.018363552 0.11406649

fc2.bias f4 [128]
00000000: bb48 1dbe 83f3 18be 9e6d 8abd 8c6c 1b3d
00000010: ed85 7ebd 9386 cebc 8e7f 4d3d 20f0 92bd
00000020: acb5 39bc 7b94 6739 29d6 793d 5be4 c03b
00000030: 4ea7 2f3d c42a 35bd 3dc7 b6bd 8408 883d
00000040: 3eca 8b3d 28cc 6ebd 9fa2 62bd 065e a43b
00000050: f038 11bd 0f92 873d 081a fdbc e8df 4ebb
00000060: 110f 373d b083 03bd 1136 19bd 9dce df3c
00000070: 188f 823b da23 07be 900c acbc bdbc 373c
00000080: 0dd6 e33d 451d e9ba 51ef 0f3d 9d4b bfbd
00000090: a782 4cbc c2b5 a8bc e65d a63d 3622 973d
000000a0: 2dab 9bbc 51df 0abd 83f9 a43d fc78 b5bd
000000b0: cc88 54bc 1148 1abe 4ab4 9bb9 3ec6 6a3d
000000c0: 829f d5bd c636 2fbd f266 f4bd 66e6 10bd
000000d0: bb7c 8b3d 7b90 f8bd eeee d9bb 8f81 96bd
000000e0: 5d0d c73d a6b6 ca3d 4b90 203d abd2 6cbd
000000f0: 473f 753d 4906 94bc 1868 7bbc 88cc 07bb
00000100: 1e73 1e3d a00f acbd d6d7 b73d 22dd 473a
00000110: 0f09 01bd 25a8 e13d dfbd 263d f092 dfbc
00000120: b1a5 c13c ae96 a5bd 1be0 553d ae61 153d
00000130: 9855 0b3d e76a 25bd 515b 073c 72d2 cfbc
00000140: e90c 383d c538 1f3d e3a5 023e ce30 16bd
00000150: 0c87 a2bd 54bd 9dbd 9f36 e73d af82 a8bd
00000160: 8f96 9ebd 1a1c 86bd 79e8 0abd 563a 863d
00000170: e434 fabc 4963 c1bd 1cbc 173e 6101 a4ba
00000180: 12f3 6e3d aae8 46bb c5b6 83bd b19e 68bb
00000190: 1685 55bd ae3a 91bc d317 a5bb bf46 b1bd
000001a0: 8906 c9bc 9b90 513b 4452 893c 60a6 6e3c
000001b0: 8f43 c1bc 9e4b 9cbc 96bd 24bb 6fa2 1cbb
000001c0: e759 bfbc 86de 7ebc 746f 0fbd 7b4b 033e
000001d0: 42de 0fbc 481b cbba 0448 8bbb 5d85 2d3d
000001e0: 531c 953b 4a1b 453a 08a7 243d 3479 60bd
000001f0: 619f e2bb 68d7 babc cd60 bb3c f2e0 693d
-0.15359776 -0.14936642 -0.06759189 0.037945315 -0.06213944 -0.025210654 0.050170474 -0.071747065
-0.011334818 0.0002208519 0.060995255 0.005886597 0.042884164 -0.044230238 -0.089247204 0.06642249
0.06825684 -0.058300167 -0.05533087 0.0050160913 -0.03545469 0.06619655 -0.030896202 -0.0031566564
0.044692103 -0.03210801 -0.037405077 0.0273202 0.0039843433 -0.1319727 -0.021002084 0.011214432
0.11124811 -0.0017785212 0.03514034 -0.09340594 -0.012482322 -0.020594481 0.081233785 0.07379572
-0.019002521 -0.033904377 0.08055403 -0.088609666 -0.012972068 -0.15066554 -0.0002969823 0.057317965
-0.10430814 -0.042776845 -0.11933698 -0.035375975 0.068109 -0.121369325 -0.006650797 -0.0734893
0.09719346 0.09898119 0.03920011 -0.057818096 0.0598748 -0.018069403 -0.015344642 -0.0020721275
0.038684003 -0.08401418 0.08976714 0.0007624199 -0.03150278 0.11018399 0.04070842 -0.027291745
0.023638578 -0.080853805 0.052215677 0.036470108 0.034017175 -0.040385153 0.008261518 -0.025368903
0.044934187 0.0388725 0.12758593 -0.036667638 -0.079359144 -0.07702127 0.11289715 -0.08228051
-0.077435605 -0.06548329 -0.03391311 0.065540954 -0.030542798 -0.09442765 0.14817852 -0.0012512618
0.05833728 -0.003035108 -0.06431345 -0.0035494978 -0.052128874 -0.017728176 -0.0050382405 -0.08656072
-0.024539249 0.003197706 0.01676286 0.014566034 -0.023591785 -0.019079026 -0.0025137416 -0.002390053
-0.023358298 -0.015555983 -0.0350184 0.12821762 -0.008781018 -0.0015495801 -0.0042505283 0.042363513
0.0045504957 0.000751902 0.040198356 -0.05480309 -0.006915972 -0.022807792 0.022873307 0.05709929

fc3.weight f4 [4, 128]
00000000: 36d3 0dbe 0aef 1abf 5976 50bc 755e 503d
00000010: 1775 a0bd 0e02 163e 3448 d83d 133c 74be
00000020: 2bb5 95be f0bc 133f 9229 b83d 8099 f63d
00000030: 33bf 2a3e 0dff debd 6a3a 9bbe 533f b13e
00000040: d78e 573e 55a1 2abf 04f5 9b3d be38 493e
00000050: d773 edbd 3148 7ebd e59f 363e dc02 b33e
00000060: dcec 6dbe 17db 9b3a 797a e33e db36 a4be
00000070: ceae 7cbe 2b3b 36be bd91 14bf 0b31 473e
00000080: 1b86 143e e134 31be 15f1 f73d 7874 953d
00000090: 5389 b4be e5d8 203e 1a78 55be 7855 383e
000000a0: 5759 95be 9c0c a7be 0d78 af3e 2f57 a1be
000000b0: 67c7 743e df49 423f 7c57 863c cf88 ba3e
000000c0: ec48 47be 5682 44be bf27 efbe a114 023f
000000d0: 98f3 32be 6877 0e3f 0dca 61be caad d3be
000000e0: be4e b43e b917 d5bc 81f2 8cbc e076 4d3d
000000f0: 98fb bd3d 5930 323e 8363 60be df25 f13c
00000100: 0ef3 48be ea65 03bf 6d47 45bd 479e 16be
00000110: 7eaf 6bbe 35e5 8fbe 436d b93e a446 76be
00000120: 2a3e 943e 7f21 4cbe f586 febc e547 af3d
00000130: e209 80be 43e0 4cbe 4c37 c83e 383c 5dbd
00000140: cc6c d9be 0e05 e1be ce80 763e 618b 1fbe
00000150: 282a 71be f854 afbe 224e 383e 830b 66be
00000160: c603 39be 6d6c 91bd cd5e 643e fc7e c53d
00000170: 0be5 ff3d e06e 66be 7b8b 03be 41cb b83e
00000180: 1b44 9ebd ab8d 63bd 7575 e9be 6ccb a0bd
00000190: 7b8b 313e 1fdb 573a 0a2c b13d d385 0e3f
000001a0: 9ec9 123e eeed d2be 97d7 10be c28f 4abe
000001b0: ee39 3f3e 8789 a3be 9cec e6be 2abd aa3e
000001c0: 75ad 20bf 0e3c b93e 6dfe d3bc c65e d03c
000001d0: 2af3 d0bd 8e82 9b3e 4285 82bd 8d12 893c
000001e0: e59a aa3d eca6 9d3e 27a3 b23d 2d3e 3d3d
000001f0: 9477 82bd 1e05 033e 56ea 483e 592e 003e
00000200: abbc bcbe 02cc 6cbd ce58 923e a917 6abd
00000210: 88ed 49be 4621 903d 8b92 38bd 3b5d 983d
00000220: fa48 253d fc14 723e f6c9 fcbd 512b d13d
00000230: 8370 b6bd afe7 d93e e1a3 3fbe 533a a33d
00000240: 67fb aa3e 0d30 a3bd 11d2 333d a349 473d
00000250: fd4c 79be dddf 58be c9f4 133e 847e 95be
00000260: 78de 26be 3230 0cbe ecf9 7f3e f9d4 0b3e
00000270: a801 763d 4dba 1c3e bda5 373e 097b d83b
00000280: e072 c33e 4359 003e 2647 633e eb84 89be
00000290: a447 023f 135a ccbe 093f 8abd cfd7 c63e
000002a0: 0385 dabe 8e04 67be a82d d5bd cbee 0abe
000002b0: b2d5 97bd 06bb 90bb 6a75 69be 4196 033e
000002c0: a1ce 143e d446 ca3d f25e 663e 5124 99be
000002d0: ddc5 a3be 3409 e2bd a68c 31be 7a80 93be
000002e0: a7d8 f93e 10f1 a8be ed55 44be 1cc7 4f3d
000002f0: 45a4 0dbe 57c6 c9bd 79c0 7ebe 03ae 1abe
00000300: 9d92 aebd 7e94 e7bd ce76 163f b0ef f8bd
00000310: 856b a93e c1bb ac3e 5438 85be 2bf5 cc3e
00000320: 7787 ecbd 97b4 443e 1cf6 4cbe 9614 89bd
00000330: c3bb 12be addd 373e 8b35 1a3f 339c 133f
00000340: 0936 51bc 0acd e7bd b112 533e 5682 fb3e
00000350: 9fe2 4fbe 01e5 86be 6aba 093d aa0b ae3e
00000360: cf92 92bd 8f7f a1be 280b a4be d920 e93e
00000370: 0425 90be 56fd 37bc 1acb c5bd f10e 783e
00000380: d1c2 973e eaa0 823e abc5 04bd 6658 9dbd
00000390: 680d d43e 2886 82be 1b7d b23c 98ca 2a3e
000003a0: 94f1 7e3c 5c61 af3d e56e a83e b527 163e
000003b0: f31a 243e 4195 163f 0e00 013f 154f 07be
000003c0: 505f 72bd 8d54 873e 758b 60be ebc4 173e
000003d0: edea 113d 0f4b 603e c992 033e 81df 643d
000003e0: f09f 1d3e d62d 943e c0cb 08be 8cf2 e1be
000003f0: bec6 773e b7c8 90be c2a5 013e b2fb 98be
-0.13850102 -0.60520995 -0.012723529 0.05087133 -0.07834833 0.14649221 0.10560647 -0.23851041
-0.29239783 0.5771017 0.08992304 0.120409966 0.16674499 -0.10888491 -0.30318004 0.34618625
0.21050583 -0.66652423 0.076150924 0.19650552 -0.1159436 -0.062080566 0.17834432 0.3496312
-0.23234886 0.0011890855 0.44429377 -0.320731 -0.24676058 -0.17796008 -0.5803488 0.19452302
0.14504282 -0.17305328 0.121065296 0.07297605 -0.3526102 0.15707739 -0.20846596 0.18001354
-0.29169723 -0.32626808 0.3427128 -0.31511828 0.23904191 0.7589397 0.016399138 0.36432502
-0.19461411 -0.19190344 -0.4671001 0.5081273 -0.17475736 0.5565095 -0.22049733 -0.41343528
0.35216326 -0.026012288 -0.017205479 0.050162196 0.09276503 0.17401256 -0.2191296 0.029437004
-0.19623968 -0.51327384 -0.04816382 -0.14708816 -0.23016164 -0.2810456 0.36216173 -0.24050385
0.28953677 -0.19934653 -0.031070212 0.08558635 -0.2500754 -0.20007424 0.39104688 -0.054012507
-0.42465818 -0.4394917 0.24072573 -0.15580513 -0.23551238 -0.34244514 0.17998555 -0.22465329
-0.18067846 -0.07100759 0.22301789 0.09643361 0.12494858 -0.22503233 -0.12846176 0.3609257
-0.07727834 -0.055555027 -0.45597425 -0.078513 0.17338364 0.00082342507 0.08650978 0.5567295
0.14334723 -0.4119715 -0.14144741 -0.19781402 0.18674442 -0.31940863 -0.45102394 0.33347446
-0.62764674 0.3617863 -0.025878156 0.025435816 -0.1020263 0.30373043 -0.06373073 0.016732479
0.08330325 0.30791414 0.08722525 0.046201874 -0.06370464 0.12794921 0.19620642 0.1251768
-0.36862692 -0.057811745 0.28583378 -0.05715147 -0.19719517 0.070375964 -0.04506163 0.07439657
0.0403528 0.23640817 -0.123432085 0.1021334 -0.08908179 0.42559573 -0.18714859 0.07970109
0.3339493 -0.07968149 0.043901507 0.04865421 -0.24345775 -0.21179147 0.14448847 -0.29198086
-0.16295803 -0.1369026 0.24997681 0.13655461 0.060060173 0.15305443 0.17934318 0.006606464
0.3817358 0.1253405 0.2219511 -0.2685922 0.50890565 -0.3991247 -0.06750304 0.38836524
-0.42679605 -0.22560331 -0.10409099 -0.13567655 -0.07413806 -0.004416826 -0.22798696 0.12850286
0.14531948 0.09876791 0.22497156 -0.2991052 -0.31986895 -0.110369116 -0.1733881 -0.28808957
0.48798105 -0.32996416 -0.19173403 0.050726995 -0.13832195 -0.098522834 -0.2487811 -0.15105443
-0.08524058 -0.113076195 0.5877503 -0.12155092 0.33089843 0.33736995 -0.26019537 0.40030798
-0.11549275 0.19209515 -0.20015758 -0.066933796 -0.14329438 0.17955656 0.6023795 0.57660216
-0.012769231 -0.11318405 0.20612599 0.49122876 -0.20301293 -0.2634659 0.033625044 0.33993274
-0.07156908 -0.31542632 -0.32039762 0.45532873 -0.2815324 -0.011229834 -0.09657879 0.2422445
0.2964082 0.25513393 -0.032415073 -0.07682876 0.41416478 -0.25492978 0.02178817 0.16678846
0.015560526 0.08563492 0.32897106 0.14663585 0.16025905 0.58821493 0.5039071 -0.13213761
-0.05917293 0.26431695 -0.21928199 0.14821212 0.035624433 0.21903633 0.12848963 0.055877212
0.15393043 0.2894122 -0.13358974 -0.4413036 0.24196908 -0.28278133 0.12660888 -0.29879528

fc3.bias f4 [4]
00000000: a251 843d be9b 5e3d 1fe3 113d 7d82 63bd
0.06460883 0.054347746 0.03561699 -0.055544365
