checkpoint_critic.pth (torch_old, 436412 bytes, 11 tensors)

bn0.weight f4 [33]
0.6422061 0.46925166 0.5173603 0.12027659 0.09303981 0.06104924 0.048886955 0.058692887
0.11461658 0.11228561 0.2487893 0.14181724 0.17802547 0.83026314 0.6077864 0.7477889
0.19114402 0.15520309 0.09782824 0.20393692 0.096628286 0.054923546 0.05124 0.5447483
0.22333032 0.34779036 0.76023436 0.19936377 0.86446965 0.006160438 0.95155454 0.075265884
1.0756269
00000000: 9e67 243f c141 f03e ba71 043f 9353 f63d
00000010: a88b be3d c50e 7a3d b03d 483d f467 703d
00000020: 19bc ea3d fff5 e53d 9fc2 7e3e 8a38 113e
00000030: 4f4c 363e 208c 543f e497 1b3f 186f 3f3f
00000040: 42bb 433e 8fed 1e3e 2c5a c83d d7d4 503e
00000050: 0de5 c53d 83f7 603d 09e1 513d a074 0b3f
00000060: b4b0 643e 9411 b23e b89e 423f 0426 4c3e
00000070: e24d 5d3f 80dd c93b 1499 733f 0025 9a3d
00000080: 24ae 893f

bn0.bias f4 [33]
0.075003155 -0.20085366 -0.058443204 0.035291836 0.03195141 0.063742675 -0.12151944 -0.05500896
0.04352251 -0.06137254 0.002893214 -0.06719065 0.034801424 -0.09711093 0.036786143 0.007378896
-0.07704329 0.018393395 0.08143713 -0.06674866 -0.118199565 -0.08300914 -0.055754624 0.07571114
-0.07310055 -0.097459614 -0.034886517 -0.08329076 -0.022472557 -0.10858393 -0.08509457 -0.13109732
0.0006791076
00000000: 419b 993d 95ac 4dbe 2462 6fbd 2c8e 103d
00000010: 7bdf 023d 858b 823d 2fdf f8bd 1351 61bd
00000020: a944 323d c661 7bbd 149c 3d3b 409b 89bd
00000030: f08b 0e3d 18e2 c6bd 11ad 163d abca f13b
00000040: dfc8 9dbd bfad 963c 83c8 a63d 85b3 88bd
00000050: 9d12 f2bd b200 aabd f65e 64bd 710e 9b3d
00000060: beb5 95bd e898 c7bd 2ae5 0ebd 5994 aabd
00000070: 5e18 b8bc 4061 debd 1046 aebd 603e 06be
00000080: 2406 323a

bn0.running_mean f4 [33]
1.0917828 -2.685265 -0.5209117 0.88769984 0.1419619 0.016345603 -0.08210971 -0.00385208
0.0041779857 0.0047108023 0.008860578 -0.0053294017 -0.0008011881 0.77725637 -3.193448 -0.21284813
-0.057056084 0.056544997 -0.044213682 -0.2010043 0.075351216 0.051538926 0.04477413 -0.017503645
0.1069862 -0.009043723 0.0024147737 -0.99999976 0.047084723 0.0 0.99999976 0.0
-0.0067190323
00000000: 8abf 8b3f 62db 2bc0 785a 05bf 4c40 633f
00000010: 765e 113e 37e7 853c 2329 a8bd 2e73 7cbb
00000020: 7ce7 883b 135d 9a3b f52b 113c 43a2 aebb
00000030: d306 52ba 46fa 463f 7461 4cc0 dcf4 59be
00000040: a4b3 69bd ba9b 673d 6819 35bd 12d4 4dbe
00000050: bd51 9a3d 7b1a 533d 1465 373d ce63 8fbc
00000060: 951b db3d 202c 14bc 2e41 1e3b fcff 7fbf
00000070: e9db 403d 0000 0000 fcff 7f3f 0000 0000
00000080: 542b dcbb

bn0.running_var f4 [33]
3.5368216 0.5352941 3.307458 0.03329975 0.061138496 0.014884802 0.07548939 0.25200057
0.04536136 0.097566284 1.748428 1.0634133 1.9499075 18.351171 1.7380649 17.91124
0.12976418 0.2396365 0.11339082 0.46848232 2.557412 0.4935884 0.5491892 6.9845343
2.6168826 7.438015 31.991423 6e-45 32.023567 6e-45 6e-45 6e-45
0.33379778
00000000: 495b 6240 0909 093f 64ad 5340 5265 083d
00000010: 5c6c 7a3d 62df 733c 2e9a 9a3d 3806 813e
00000020: d5cc 393d d5d0 c73d 7dcc df3f ed1d 883f
00000030: 9296 f93f 33cf 9241 e978 de3f 384a 8f41
00000040: e7e0 043e 4563 753e 7239 e83d eadc ef3e
00000050: a3ac 2340 9eb7 fc3e aa97 0c3f 4e81 df40
00000060: 017b 2740 3804 ee40 6fee ff41 0400 0000
00000070: 2218 0042 0400 0000 0400 0000 0400 0000
00000080: 8be7 aa3e

fc1.weight f4 [256, 33]
0.18467602 -0.20860778 -0.16841607 -0.014352766 0.007153453 0.036598645 -0.16895247 0.17757589
0.10233947 0.1050234 0.1053634 -0.27524439 0.37026507 0.093359366 0.0032797551 -0.14128259
-0.14357662 0.07542428 -0.24399304 0.21053313 0.08205606 0.14428669 -1.0854201 -0.12569498
0.12089934 -0.09153499 -0.32093418 0.26326317 0.062098358 -0.14904875 0.117291994 0.7195142
-0.0465888 -0.32367876 0.37149295 0.05290762 0.21023142 0.32901174 -0.059487667 0.18335313
0.14240289 -0.4604663 -0.21310197 -0.018603623 0.11002882 0.09985694 0.041800518 -0.16156648
0.1940518 0.40215725 0.3565563 0.33074403 -0.2672782 0.21697597 0.002689604 0.049493037
-0.09520232 0.046235994 -0.06702086 -0.5509413 -0.10578443 -0.25877866 0.7138557 0.15861143
-0.25745377 0.20677225 0.17977302 0.23681708 0.055217102 0.16924483 -0.1344609 -0.11458145
-0.16544816 -0.023655018 -0.46740776 -0.29907486 0.41854304 0.05531316 -0.33542606 0.33123863
-0.4168398 0.08085502 -0.17941622 0.0167034 0.0010009308 0.17051508 -0.07958059 -0.15271296
0.1629906 -0.042452984 -0.47463793 0.2175505 -0.36721498 -0.17036633 -0.22215629 -0.18214689
0.3940219 0.17229842 0.02629014 0.31655145 -0.08695174 -0.14393562 -0.10337931 0.34443507
0.10077556 0.018823182 0.09231902 -0.18619412 0.10212522 0.19279377 -0.092464976 -0.21455744
-0.1679639 0.06957581 0.13294953 -0.40682787 -0.35606092 -0.32513228 -0.50340563 -0.51955533
0.17101896 -0.3330549 -0.13074881 0.09445927 0.37479746 -0.29708424 0.25910857 -0.11023721
-0.113217294 0.08180011 0.08467538 0.12026866 -0.13569313 0.5065297 0.60626674 -0.094413154
0.28930846 0.09058825 0.42609414 -0.11342975 -0.092646 -0.18411238 -0.12737727 0.16042428
0.049749676 -0.3341499 -0.15814753 -0.49550125 0.1988645 0.21038714 -0.3836654 0.23846832
-0.01010121 -0.19578247 0.20350242 -0.1513286 -0.63816327 -0.119938046 -0.3200537 -0.10323753
0.13563007 -0.17946286 0.42833 0.4035906 0.008341822 -0.06696863 0.24051866 0.68340373
-0.27291983 -0.23324831 -0.012938038 0.20062858 0.19634648 0.23561911 0.25829634 -0.0021006255
0.08435169 -0.03618984 -0.13472399 -0.21715145 -0.37200236 -0.08724693 0.041886464 0.032593496
-0.19952683 0.13196819 0.06936262 -0.049441267 0.21920076 -0.109551795 0.08863661 -0.12781732
-0.07426576 -0.18145856 0.19769603 0.10124433 0.05033457 0.33215302 -0.4261954 0.10285304
-0.15911415 -0.12696713 0.27091417 -0.40917197 0.48127255 -0.22106151 0.16959141 -0.21627715
0.09374887 -0.012829247 -0.24662699 0.71353877 -0.235123 -0.17204235 0.18265978 -0.022295143
0.4186157 -0.58076805 -0.01976472 -0.20893137 0.004207274 0.0822173 0.1656168 -0.0018357004
-0.4098334 0.093270384 -0.0015200659 0.24266168 -0.19823845 -0.1793972 0.3138926 -0.2572613
0.1688197 -0.052547112 -0.10653182 -0.40300974 0.06881393 -0.28843558 0.3463669 0.24249998
0.17224717 -0.1118533 -0.02287962 -0.5780971 0.51085466 -0.15385921 0.11267684 0.11887631
0.17922679 -0.45803764 0.118197486 1.0482115 -0.55618 -0.07523811 0.028355613 -0.06219865
00000000: b61b 3d3e 479d 55be 4375 2cbe dd27 6bbc
00000010: 8367 ea3b 76e8 153d e001 2dbe 74d6 353e
00000020: 5b97 d13d 8216 d73d c4c8 d73d d5ec 8cbe
00000030: 6293 bd3e 3233 bf3d 29f1 563b 62ac 10be
00000040: c005 13be 0b78 9a3d 50d9 79be ff95 573e
00000050: 020d a83d e4bf 133e 0cef 8abf 2fb6 00be
00000060: 139a f73d b276 bbbd 7c51 a4be 6eca 863e
00000070: d95a 7e3d 3ca0 18be c936 f03d 1532 383f
00000080: e6d3 3ebd 39b9 a5be 5334 be3e a9b5 583d
00000090: e846 573e 3a74 a83e 57a9 73bd ecc0 3b3e
000000a0: 10d2 113e 3dc2 ebbe 6737 5abe a066 98bc
000000b0: ca56 e13d cc81 cc3d 0537 2b3d af71 25be
000000c0: 84b5 463e 8ee7 cd3e 8c8e b63e 4857 a93e
000000d0: b0d8 88be f32e 5e3e 1144 303b 36b9 4a3d
000000e0: 6ff9 c2bd f461 3d3d 3c42 89bd 7d0a 0dbf
000000f0: 82a5 d8bd a37e 84be 3fbf 363f 096b 223e
00000100: fbd0 83be 1bbc 533e 6b16 383e 2d80 723e
00000110: 542b 623d 844e 2d3e 1eb0 09be aea9 eabd
00000120: 3e6b 29be 2bc8 c1bc 1250 efbe 5720 99be
00000130: 464b d63e 0d90 623d f7bc abbe 1c98 a93e
00000140: 076c d5be 5197 a53d e3b8 37be 92d5 883c
00000150: aa31 833a 819b 2e3e 26fb a2bd c960 1cbe
00000160: 02e7 263e 2ee3 2dbd be03 f3be 8fc5 5e3e
00000170: 9a03 bcbe 8374 2ebe f07c 63be b784 3abe
00000180: 3dbd c93e ff6e 303e 6b5e d73c 0813 a23e
00000190: c113 b2bd dc63 13be 88b8 d3bd cb59 b03e
000001a0: 6b63 ce3d 1333 9a3c c111 bd3d aca9 3ebe
000001b0: 0727 d13d bb6b 453e 475e bdbd f2b4 5bbe
000001c0: bbfe 2bbe c37d 8e3d ec23 083e be4b d0be
000001d0: 9e4d b6be bd77 a6be 31df 00bf 9401 05bf
000001e0: 981f 2f3e 2c86 aabe 04e3 05be dd73 c13d
000001f0: 74e5 bf3e 6d1b 98be e1a9 843e 0cc4 e1bd
00000200: 78de e7bd d186 a73d 496a ad3d 6a4f f63d
00000210: 24f3 0abe eeab 013f 4c34 1b3f af5b c1bd
00000220: 3d20 943e 5586 b93d 0329 da3e db4d e8bd
00000230: 30bd bdbd f587 3cbe 306f 02be 4346 243e
00000240: 51c6 4b3d b215 abbe 6df1 21be 57b2 fdbe
00000250: 23a3 4b3e ba6f 573e cb6f c4be 0a31 743e
00000260: 8c7f 25bc 337b 48be f062 503e e2f5 1abe
00000270: ab5e 23bf 14a2 f5bd 14de a3be 336e d3bd
00000280: 9ce2 0a3e 1dc5 37be 124e db3e 6da3 ce3e
00000290: 23ac 083c d926 89bd 864a 763e 8cf3 2e3f
000002a0: 26bc 8bbe a5d8 6ebe 11fa 53bc 9471 4d3e
000002b0: 0d0f 493e 2346 713e 6b3f 843e a6aa 09bb
000002c0: 94c0 ac3d cc3b 14bd 16f5 09be f35c 5ebe
000002d0: 1877 bebe 85ae b2bd 2491 2b3d c280 053d
000002e0: c350 4cbe ab22 073e fd0d 8e3d ed82 4abd
000002f0: 2a76 603e b15c e0bd 1c87 b53d 8be2 02be
00000300: a618 98bd 46d0 39be d470 4a3e 3059 cf3d
00000310: 9f2b 4e3d f60f aa3e 4936 dabe 9da4 d23d
00000320: d2ee 22be ac03 02be 43b5 8a3e fd7e d1be
00000330: 5b69 f63e f35d 62be 5fa9 2d3e c277 5dbe
00000340: 68ff bf3d c331 52bc c98b 7cbe 7aaa 363f
00000350: 15c4 70be df2b 30be 2a0b 3b3e 4ea4 b6bc
00000360: cc54 d63e 37ad 14bf 9fe9 a1bc 1bf2 55be
00000370: 2cdd 893b 8b61 a83d 7397 293e e29b f0ba
00000380: afd5 d1be 8b04 bf3d f33c c7ba 4e7c 783e
00000390: 05ff 4abe e6b3 37be 88b6 a03e c1b7 83be
000003a0: 12df 2c3e a43b 57bd 5b2d dabd 4b57 cebe
000003b0: 51ee 8c3d d4ad 93be 0157 b13e ea51 783e
000003c0: 9061 303e 5813 e5bd 0a6e bbbc 2cfe 13bf
000003d0: 5fc7 023f 458d 1dbe 1dc3 e63d 6c75 f33d
000003e0: 3a87 373e e983 eabe 8611 f23d cb2b 863f
000003f0: d061 0ebf 7016 9abd 084a e83c 03c4 7ebd

fc1.bias f4 [256]
-0.036388125 -0.12539726 -0.07932233 0.047248416 -0.17933378 -0.12511744 -0.0811304 -0.08917912
-0.057765115 -0.10880582 0.20687754 -0.2847665 -0.02649891 -0.067651495 -0.06267713 -0.03782947
0.008705738 -0.06270533 -0.13896865 -0.033937316 0.13589346 0.06142429 -0.32118174 0.038780905
0.08285561 -0.21006595 -0.06745466 -0.16461644 0.044002313 -0.20907746 0.14185359 -0.22299951
-0.21106644 -0.10166928 -0.16105138 0.023025256 0.030547962 0.057472765 -0.17840797 0.12598342
-0.061601263 -0.17641196 0.04033094 -0.23930004 -0.2690175 -0.23159593 -0.028019762 0.052073825
-0.090802066 -0.21529387 -0.3038134 0.08814136 -0.037190292 0.06878566 -0.046577916 -0.1645081
-0.1606689 0.15546112 -0.21612151 -0.05241352 -0.10647931 -0.11387197 -0.0434713 0.1918106
-0.05165295 -0.19464937 -0.19734873 -0.13499741 -0.0535378 -0.04091219 -0.24195008 0.13612676
-0.110614866 -0.07137132 -0.10739732 0.010561693 0.02172482 -0.057180572 -0.013269902 0.04458949
0.2339612 0.18613794 -0.036031727 -0.21414582 0.13163722 0.2504733 -0.08210302 0.09782256
0.037551153 -0.019926775 -0.03983122 -0.14531562 -0.1578233 -0.083249226 -0.13549039 -0.08816812
-0.27212802 -0.12358582 0.08433413 -0.16167851 0.037162 -0.21094172 -0.07437144 0.0005692159
-0.09476173 -0.095071085 0.3051109 -0.101204365 -0.01252991 -0.11383949 0.24196318 -0.09472707
-0.029980654 0.15577729 -0.06730514 0.08287734 -0.04312085 -0.0646616 -0.190877 -0.046418097
-0.101250455 -0.07206395 -0.0983815 -0.045159582 -0.24691764 -0.118135266 -0.015255173 -0.20133303
-0.09399204 0.01449983 -0.049179822 -0.10196454 -0.018324926 -0.12632273 -0.05770823 -0.06188031
-0.2738986 -0.08609346 -0.018955817 0.037388254 0.032552946 0.13706098 -0.020296095 -0.0062516653
-0.017705025 -0.2835016 0.21032855 -0.13136712 -0.24500084 -0.22186826 -0.0074490304 0.10371563
-0.11794825 -0.25295776 -0.11603443 0.015973372 -0.09205744 -0.19937257 -0.18064736 0.00039867667
-0.16839176 -0.039794803 0.056947522 -0.24158072 -0.29868573 -0.27362704 -0.20287049 -0.13365959
-0.03741945 0.0013697202 -0.10919083 0.06053686 -0.054618377 -0.047774274 0.06337415 -0.19151226
-0.20304154 -0.1867409 -0.4155004 0.013805851 -0.15415952 0.10249843 0.11573921 -0.20231462
-0.2178779 0.08723854 -0.14342512 -0.25917238 -0.029588059 0.07716394 -0.029430417 -0.12507181
-0.051874828 -0.22240366 -0.027298698 0.06870696 -0.15191926 -0.2445154 0.0101840375 -0.001822972
0.059484545 -0.17071404 -0.03143934 -0.28742492 0.06744784 0.06290089 -0.2289624 0.060053278
-0.07349789 -0.19625223 0.12781747 0.107863046 -0.15262587 0.09132045 0.105170175 -0.17248785
0.06289762 -0.1255405 -0.13412523 0.20263152 -0.204696 -0.272281 -0.011093506 -0.3260143
-0.07951571 -0.11690564 -0.09802595 0.07446563 -0.29955095 0.19581813 -0.23502423 -0.08185789
-0.0015089711 -0.071598746 -0.22970839 -0.04730905 -0.3225584 -0.16844895 -0.0137669025 -0.11729169
-0.1560169 -0.0008894657 -0.14595193 -0.1285298 -0.20968641 0.2552814 -0.04858967 -0.28017598
-0.07575822 -0.040427674 -0.11548101 0.014689955 -0.19650422 -0.16398461 -0.17988883 0.22367749
00000000: b70b 15bd 2468 00be bf73 a2bd 8e87 413d
00000010: 46a3 37be c91e 00be b227 a6bd 8ba3 b6bd
00000020: 1d9b 6cbd 96d5 debd b5d7 533e eacc 91be
00000030: 3e14 d9bc de8c 8abd de5c 80bd 13f3 1abd
00000040: 83a2 0e3c a76b 80bd cc4d 0ebe db01 0bbd
00000050: a827 0b3e 0998 7b3d ef71 a4be bad8 1e3d
00000060: 34b0 a93d 871b 57be ab25 8abd 3691 28be
00000070: c53b 343d 6718 56be 1142 113e fc59 64be
00000080: cd21 58be fc37 d0bd a7ea 24be 769f bc3c
00000090: b83f fa3c 9068 6b3d 94b0 36be cc01 013e
000000a0: 9b51 7cbd 56a5 34be 0e32 253d 120b 75be
000000b0: a9bc 89be 7c27 6dbe b389 e5bc 5d4b 553d
000000c0: 6ff6 b9bd ff75 5cbe 6e8d 9bbe 7583 b43d
000000d0: d954 18bd 7fdf 8c3d 7cc8 3ebd d074 28be
000000e0: 6386 24be 3331 1f3e f54e 5dbe 8faf 56bd
000000f0: d311 dabd b535 e9bd f60e 32bd ff69 443e
00000100: 0b92 53bd 2a52 47be c915 4abe c33c 0abe
00000110: 744a 5bbd 8a93 27bd c3c1 77be d064 0b3e
00000120: 0c8a e2bd 202b 92bd 20f3 dbbd f40a 2d3c
00000130: 40f8 b13c 2d36 6abd 016a 59bc 78a3 363d
00000140: 8693 6f3e f29a 3e3e 0196 13bd 0b49 5bbe
00000150: e8cb 063e 093e 803e a125 a8bd 3257 c83d
00000160: 3dcf 193d 7a3d a3bc 1026 23bd 9ecd 14be
00000170: 6e9c 21be 927e aabd febd 0abe 7d91 b4bd
00000180: 5d54 8bbe 901a fdbd 5fb7 ac3d 0d8f 25be
00000190: 2e37 183d 1b01 58be 0e50 98bd 6f37 153a
000001a0: 7012 c2bd a1b4 c2bd 7f37 9c3e 3c44 cfbd
000001b0: 404a 4dbc ae24 e9bd 32c5 773e 4400 c2bd
000001c0: fd99 f5bc 1584 1f3e 47d7 89bd 98bb a93d
000001d0: 7d9f 30bd 4d6d 84bd 4375 43be e720 3ebd
000001e0: 665c cfbd 4496 93bd 3d7c c9bd 41f9 38bd
000001f0: fad7 7cbe e7f0 f1bd d5f0 79bc 3f2a 4ebe
00000200: e67e c0bd b290 6d3c c870 49bd c9d2 d0bd
00000210: 281e 96bc bf5a 01be 775f 6cbd 3576 7dbd
00000220: 703c 8cbe c551 b0bd 3b49 9bbc 6d24 193d
00000230: 3d56 053d b759 0c3e ff43 a6bc c5da ccbb
00000240: 210a 91bc 1f27 91be 5e60 573e 1a85 06be
00000250: 80e1 7abe 6f31 63be ff16 f4bb dc68 d43d
00000260: da8e f1bd ae83 81be 76a3 edbd 97da 823c
00000270: 9c88 bcbd 5328 4cbe 9ffb 38be 7a05 d139
00000280: e46e 2cbe e0ff 22bd ce41 693d f060 77be
00000290: 56ed 98be d818 8cbe 48bd 4fbe 0fde 08be
000002a0: 2345 19bd 2f88 b33a 719f dfbd 80f5 773d
000002b0: 85b7 5fbd f5ae 43bd 4eca 813d ca1b 44be
000002c0: 1fea 4fbe 0239 3fbe 78bc d4be f031 623c
000002d0: fedb 1dbe b2ea d13d ae08 ed3d 902b 4fbe
000002e0: 621b 5fbe 1faa b23d 09de 12be 3eb2 84be
000002f0: a862 f2bc 2108 9e3d 0f18 f1bc d312 00be
00000300: b37a 54bd c9bd 63be 85a1 dfbc 3cb6 8c3d
00000310: b990 1bbe 3f62 7abe f3da 263c caf0 eeba
00000320: 11a6 733d a9cf 2ebe 8ac6 00bd 5c29 93be
00000330: 1822 8a3d 2fd2 803d 1f75 6abe 6dfa 753d
00000340: 1086 96bd 58f6 48be 95e2 023e 4de7 dc3d
00000350: f549 1cbe 3706 bb3d 7663 d73d a8a0 30be
00000360: 78d0 803d b08d 00be 2058 09be a37e 4f3e
00000370: d49b 51be 6a68 8bbe 89c1 35bc 59eb a6be
00000380: 22d9 a2bd 396c efbd d4c1 c8bd 7081 983d
00000390: be5e 99be 8c84 483e 31aa 70be 1ca5 a7bd
000003a0: abc8 c5ba 5da2 92bd ad38 6bbe 22c7 41bd
000003b0: 6026 a5be e27d 2cbe 938e 61bc a036 f0bd
000003c0: e5c2 1fbe 082b 69ba 6c74 15be 519d 03be
000003d0: 09b8 56be 3eb4 823e f605 47bd 3a73 8fbe
000003e0: 2027 9bbd 7d97 25bd 4f81 ecbd 23ae 703c
000003f0: 6738 49be 95eb 27be c734 38be b60b 653e

fc2.weight f4 [256, 260]
-0.113609344 0.111205906 0.0696562 0.11444645 -0.15001625 0.068142235 -0.16226636 0.19502173
0.13355783 0.089233965 0.11863525 0.15024558 0.027110914 0.073286906 -0.16454808 -0.029300852
-0.024159862 0.16942002 0.017174533 -0.1423061 0.12362986 0.095072545 0.1441202 -0.0075709606
-0.016917314 0.018941974 -0.28917778 0.029255215 0.07408385 0.24962215 0.022418683 -0.05139389
-0.0931267 0.0666114 0.16113573 0.21050818 -0.27051967 -0.14593859 0.039750915 0.03677357
-0.015352806 0.034146428 -0.08297142 0.02141003 -0.19611713 0.017267302 0.12620719 0.18522198
-0.11342074 0.09080704 0.10582933 -0.023401778 -0.243131 0.15590851 -0.08307694 0.098199785
0.06636531 0.04402866 -0.07719623 -0.03860156 -0.08418749 0.023119805 -0.008358186 -0.08655604
0.0783683 0.09916429 -0.023834623 -0.10404381 -0.13420211 0.08304115 -0.09316605 0.13623394
0.10194587 -0.17670818 0.16129626 -0.07463097 -0.069759175 -0.034057286 -0.024404509 0.32211527
0.1296879 0.026109813 0.0892018 -0.20718272 -0.02982968 0.0134353945 0.0492733 0.16846704
0.078535475 0.0047453456 -0.19013014 -0.048044734 -0.10933973 0.012880349 0.09820871 0.09189483
0.0650657 -0.1730594 0.10264003 0.009722715 -0.0649335 0.0056277188 0.07075321 -0.1191664
-0.2035971 -0.031283226 -0.19859503 -0.16757745 -0.1692326 0.16377802 0.010279643 0.04530202
0.0015598991 -0.06258029 0.0779316 -0.28056476 -0.117182374 0.076424524 -0.16545087 -0.04057403
0.033711184 0.15333475 0.13391022 -0.0006498075 0.04717358 -0.12285343 0.13756976 0.03155681
-0.076411955 0.3517548 -0.0035786813 -0.114090264 -0.12661213 0.006756091 -0.019306593 0.11671467
0.14412884 0.051864948 0.024842063 0.031947885 -0.010951021 0.04042751 0.07918779 0.010048626
0.014493462 -0.058346417 -0.083525576 -0.08844218 -0.046198484 0.22546102 0.025663702 -0.21147859
0.15755972 0.12366474 -0.1391213 0.18373787 -0.12269304 0.12517032 -0.01801963 0.13472903
-0.17696185 0.15772383 -0.1968841 -0.043405764 0.11439031 -0.101723894 -0.0053719957 -0.09055619
0.28864712 0.07443278 0.10163047 0.21209122 -0.022023331 -0.05508588 -0.22168303 0.17014408
-0.16310251 0.04558724 -0.16777043 -0.22895345 -0.16666527 0.08216618 0.13052979 -0.055180762
-0.07375659 0.15380174 -0.036357198 0.030714015 0.13009319 0.014718682 -0.1067645 0.08519274
-0.045838542 0.017447848 -0.15644506 -0.028284298 -0.02815468 -0.030480962 -0.13391307 -0.16617936
0.08927303 0.30658767 0.15343209 -0.20569809 -0.03089527 0.11090761 0.17812558 0.06004487
0.058957 -0.174502 -0.011921968 -0.1333281 0.20192264 0.10757609 0.0806669 0.046209887
-0.2157496 -0.055123977 0.13973716 -0.01010937 -0.1976081 0.03640803 0.06972933 0.17624877
0.041695822 -0.26739532 0.16686189 0.08008496 -0.044215586 -0.059665002 -0.11928339 -0.13014324
-0.090687424 0.18708114 -0.012893663 0.00016024092 0.17459047 0.17124538 -0.18311438 0.05001839
0.03577293 -0.0020834387 -0.06375241 -0.026923135 0.08871803 -0.04833161 0.19877194 -0.1117055
-0.05702905 -0.047195267 0.01644157 -0.0023753045 -0.09024858 -0.10352039 -0.035672102 -0.098874345
00000000: 04ac e8bd ecbf e33d e9a7 8e3d e662 ea3d
00000010: dc9d 19be 288e 8b3d 2729 26be c7b3 473e
00000020: 62c3 083e 4cc0 b63d 0af7 f23d fad9 193e
00000030: b517 de3c 7217 963d 4b7f 28be 5708 f0bc
00000040: e7ea c5bc 717c 2d3e 9bb1 8c3c b1b8 11be
00000050: a731 fd3d 65b5 c23d 3f94 133e d215 f8bb
00000060: 2e96 8abc 332c 9b3c 1c0f 94be a2a8 ef3c
00000070: 46b9 973d f39c 7f3e 63a7 b73c 6682 52bd
00000080: 36b9 bebd 8f6b 883d c400 253e 758f 573e
00000090: 8e81 8abe ed70 15be dbd1 223d e29f 163d
000000a0: 568a 7bbc 20dd 0b3d ebec a9bd 1664 af3c
000000b0: eed2 48be 2874 8d3c 753c 013e d5aa 3d3e
000000c0: 2249 e8bd 0bf9 b93d 0cbd d83d 16b5 bfbc
000000d0: 55f7 78be 7ba6 1f3e 3e24 aabd f81c c93d
000000e0: 89ea 873d 6557 343d 0f19 9ebd ab1c 1ebd
000000f0: 7e6a acbd bf65 bd3c c6f0 08bc 4b44 b1bd
00000100: 8f7f a03d a616 cb3d d440 c3bc ec14 d5bd
00000110: 476c 09be 7a11 aa3d d8cd bebd e980 0b3e
00000120: ffc8 d03d fdf2 34be d92a 253e 1fd8 98bd
00000130: e6dd 8ebd a77f 0bbd f7eb c7bc 4bec a43e
00000140: e8cc 043e 3fe4 d53c 6faf b63d b527 54be
00000150: 605d f4bc 2120 5c3c cdd2 493d a082 2c3e
00000160: 35d7 a03d d87e 9b3b 7ab1 42be 8eca 44bd
00000170: 82ed dfbd 1908 533c a621 c93d 5b33 bc3d
00000180: 2a41 853d 7c36 31be f034 d23d 064c 1f3c
00000190: dbfb 84bd ba68 b83b 0fe7 903d 830d f4bd
000001a0: c27b 50be d722 00bd 7f5c 4bbe 6c99 2bbe
000001b0: 504b 2dbe 6db5 273e f36b 283c 9c8e 393d
000001c0: 8775 cc3a 182a 80bd 9a9a 9f3d 2fa6 8fbe
000001d0: 50fd efbd 7684 9c3d f46b 29be f430 26bd
000001e0: bd14 0a3d c903 1d3e c31f 093e d857 2aba
000001f0: 1539 413d 949a fbbd 16df 0c3e b741 013d
00000200: df7d 9cbd 3519 b43e 4f88 6abb 28a8 e9bd
00000210: 9ca6 01be 3362 dd3b dc28 9ebc 1a08 ef3d
00000220: 8396 133e 5770 543d 9581 cb3c c9db 023d
00000230: e96b 33bc 5197 253d 352d a23d fea2 243c
00000240: fc75 6d3c a7fc 6ebd 750f abbd 2c21 b5bd
00000250: 9f3a 3dbd 41df 663e af3c d23c d88d 58be
00000260: 5657 213e f043 fd3d d075 0ebe c825 3c3e
00000270: 7d46 fbbd a62c 003e e79d 93bc 68f6 093e
00000280: 7d35 35be 5b82 213e fc9b 49be 3eca 31bd
00000290: 7845 ea3d 9e54 d0bd 9107 b0bb 8675 b9bd
000002a0: 8ec9 933e 3770 983d a323 d03d 712e 593e
000002b0: 466a b4bc bba1 61bd e000 63be 403a 2e3e
000002c0: 5804 27be b0b9 3a3d 03cc 2bbe c672 6abe
000002d0: 4daa 2abe be46 a83d 9aa9 053e 3905 62bd
000002e0: b20d 97bd 347e 1d3e 49eb 14bd f59b fb3c
000002f0: 2637 053e a026 713c 59a7 dabd 8879 ae3d
00000300: 32c1 3bbd caee 8e3c 2233 20be 79b4 e7bc
00000310: a5a4 e6bc 36b3 f9bc 8220 09be ec2a 2abe
00000320: c7d4 b63d 0ff9 9c3e 4d1d 1d3e 85a2 52be
00000330: 1418 fdbc 8723 e33d 8d66 363e 9cf1 753d
00000340: e57c 713d a7b0 32be 5c54 43bc 2987 08be
00000350: cfc4 4e3e da50 dc3d b034 a53d 9446 3d3d
00000360: 77ed 5cbe aec9 61bd 4217 0f3e c5a1 25bc
00000370: c759 4abe 9620 153d 40ce 8e3d 8f7a 343e
00000380: 3dc9 2a3d 0ae8 88be d8dd 2a3e 9503 a43d
00000390: 671b 35bd 4a63 74bd da4a f4bd 4544 05be
000003a0: 54ba b9bd 3392 3f3e f13f 53bc 5806 2839
000003b0: d8c7 323e f35a 2f3e 5682 3bbe 15e0 4c3d
000003c0: a386 123d 4d8a 08bb a090 82bd e88d dcbc
000003d0: ccb1 b53d 5ef7 45bd df8a 4b3e dac5 e4bd
000003e0: 4b97 69bd d34f 41bd 79b0 863c ffaa 1bbb
000003f0: 3fd4 b8bd 8002 d4bd e91c 12bd a27e cabd

fc2.bias f4 [256]
0.008015396 0.18292639 -0.14260305 -0.015816273 0.005333647 -0.16076267 0.03987391 -0.008575016
-0.08051908 -0.13583809 0.0931286 0.07727117 0.027411632 -0.10926143 0.10862711 0.0075217076
-0.04571526 0.09922002 -0.0112293735 -0.051992998 -0.010035207 -0.024587212 -0.048083805 0.036609642
-0.0066154017 0.046860818 -0.0017138352 0.09398406 0.0037816796 -0.054931626 -0.0390577 0.025339412
-0.106413275 0.0038163292 -0.056537434 -0.040700555 -0.032421745 0.100054294 0.19591801 -0.0069923797
0.11961066 -0.18840382 0.17988673 -0.11785059 0.019738197 0.1444584 0.027160546 -0.034768116
0.13565789 -0.015805844 -0.20826872 -0.103242695 0.08556794 0.080868855 0.00096529286 -0.13825263
-0.14086495 -0.037967406 -0.07151373 0.03165095 -0.0560735 -0.08193125 -0.1486427 0.08864446
-0.045452494 -0.07135777 0.083645545 -0.029890327 0.043088097 0.0069167614 0.024075322 0.11879813
-0.19257428 -0.1661387 -0.058949877 -0.18568131 0.005949879 -0.11070772 -0.0010295706 -0.10721155
-0.14962828 0.026196167 -0.09288956 -0.032115627 -0.053298343 -0.10283519 0.107209206 0.04472145
-0.12547871 0.01230632 -0.10099027 -0.1637461 0.12526987 0.12976447 0.05499964 -0.1061946
0.19541329 0.08166687 -0.16009584 0.16425915 -0.15974312 0.093623705 0.092454016 -0.08645491
-0.14460306 -0.10211151 0.1740883 -0.02148789 -0.16740292 0.017463153 -0.12145831 0.08093528
-0.111518234 0.078923635 0.10858151 0.11871315 0.122563034 -0.16740222 0.041895468 0.079473406
-0.12509283 -0.07480664 0.06855351 0.10166707 -0.013814843 0.06337904 -0.09325462 0.05067778
-0.04064052 -0.18178725 -0.06424347 -0.036431685 0.14554365 -0.1815371 0.03905701 0.005777446
-0.076391354 -0.035119586 -0.1461655 -0.070219696 -0.03317335 -0.011012296 -0.09434309 0.13234645
0.02619397 -0.001641582 -0.06367016 0.03594786 0.15416883 0.12786907 0.0042596515 -0.09917353
0.19160683 -0.10511648 0.09889925 -0.027977515 -0.016817236 -0.045008786 -0.06394055 0.077925794
-0.058953386 -0.022284823 -0.1323183 0.17522867 0.121922605 0.0836223 0.14516318 -0.22063945
0.14675412 -0.015586654 -0.011768556 0.037575576 -0.1221574 -0.07362555 0.084973864 -0.120129466
-0.18260993 -0.022202734 0.053078562 -0.02734254 0.074896246 -0.11469919 -0.17263302 0.060919717
-0.1031755 -0.0016479824 -0.12942474 0.020745015 -0.22626264 0.024716875 -0.089426465 -0.2172319
0.025376247 -0.014349982 0.09110182 -0.04622719 0.08995468 0.10975791 -0.019754017 0.0030713978
-0.09801271 0.021684423 -0.08752008 -0.046261422 -0.110623725 -0.16589177 -0.034533072 0.18747124
0.006812802 0.024595933 0.08881143 -0.10757311 -0.12190146 0.048308596 -0.09061806 -0.12940906
0.002969113 -0.14372998 0.027260818 0.16014595 -0.017127035 -0.000449399 -0.16513884 0.051088396
-0.18176015 0.0678868 -0.050284438 0.06750759 0.14614554 0.004914483 0.076698564 -0.14563078
-0.120220475 -0.10082177 0.14752132 0.052000016 0.08522611 0.14142144 0.1118753 -0.17413796
0.028214488 -0.0040366617 0.08334301 -0.03270553 -0.14088172 0.009429675 -0.05994811 -0.17839402
-0.16199338 -0.13057666 -0.14448862 0.076568365 0.08860956 -0.12803651 -0.1780548 -0.06567112
00000000: 0253 033c 0e51 3b3e 8906 12be 2191 81bc
00000010: e0c5 ae3b f89e 24be d352 233d 397e 0cbc
00000020: 30e7 a4bd 2419 0bbe 35ba be3d 5940 9e3d
00000030: 5c8e e03c 75c4 dfbd e477 de3d a878 f63b
00000040: ed3f 3bbd de33 cb3d 68fb 37bc 9cf6 54bd
00000050: b56a 24bc 1f6b c9bc 86f3 44bd fef3 153d
00000060: 03c6 d8bb 21f1 3f3d c4a2 e0ba b77a c03d
00000070: 0ed6 773b fcff 60bd f8fa 1fbd 9994 cf3c
00000080: 34ef d9bd 611b 7a3b cc93 67bd a0b5 26bd
00000090: aacc 04bd 44e9 cc3d bb9e 483e 5520 e5bb
000000a0: 6ff6 f43d eeec 40be 3a34 383e a65b f1bd
000000b0: 00b2 a13c e7ec 133e cb7f de3c 0369 0ebd
000000c0: e7e9 0a3e 427b 81bc 6544 55be e870 d3bd
000000d0: 3e3e af3d 929e a53d b50b 7d3a 1992 0dbe
000000e0: e73e 10be b683 1bbd ca75 92bd 6da4 013d
000000f0: 54ad 65bd 92cb a7bd cb35 18be 3a8b b53d
00000100: 652c 3abd 0624 92bd 5b4e ab3d 8fdc f4bc
00000110: 257d 303d 00a6 e23b 9c39 c53c 6f4c f33d
00000120: 3132 45be 4320 2abe 6d75 71bd 3e23 3ebe
00000130: 34f7 c23b bbba e2bd a8f2 86ba bb91 dbbd
00000140: 2838 19be 5899 d63c e23c bebd ad8b 03bd
00000150: 5d4f 5abd 429b d2bd 8090 db3d d72d 373d
00000160: 7e7d 00be 72a0 493c fdd3 cebd 0fad 27be
00000170: bf46 003e fae0 043e 4d47 613d 8e7c d9bd
00000180: 6c1a 483e f640 a73d 2af0 23be 8d33 283e
00000190: b393 23be c9bd bf3d 8858 bd3d 460f b1bd
000001a0: d312 14be d71f d1bd 3444 323e 5f07 b0bc
000001b0: ac6b 2bbe e30e 8f3c 22bf f8bd 65c1 a53d
000001c0: ac63 e4bd b7a2 a13d fc5f de3d e11f f33d
000001d0: 5402 fb3d 7d6b 2bbe 959a 2b3d f4c2 a23d
000001e0: 5618 00be 3934 99bd c865 8c3d d336 d03d
000001f0: a757 62bc dfcc 813d 47fc bebd 8193 4f3d
00000200: ad76 26bd 7026 3abe 1592 83bd 6439 15bd
00000210: 6509 153e dde4 39be 3efa 1f3d bb50 bd3b
00000220: 1273 9cbd 8ed9 0fbd 69ac 15be 58cf 8fbd
00000230: c7e0 07bd eb6c 34bc f336 c1bd d485 073e
00000240: bd94 d63c 5a2a d7ba 8065 82bd 103e 133d
00000250: 6fde 1d3e 1cf0 023e 8c94 8b3b 7e1b cbbd
00000260: 9534 443e 4f47 d7bd b18b ca3d 1a31 e5bc
00000270: 4dc4 89bc 225b 38bd 43f3 82bd 8f97 9f3d
00000280: 1b79 71bd a98e b6bc 737e 07be 256f 333e
00000290: 8fb2 f93d 2b42 ab3d a8a5 143e 4fef 61be
000002a0: b646 163e 2a5f 7fbc e7d0 40bc d9e8 193d
000002b0: a92d fabd fec8 96bd c706 ae3d 7006 f6bd
000002c0: 19fe 3abe 82e2 b5bc e868 593d 76fd dfbc
000002d0: 3463 993d 69e7 eabd b6c6 30be f486 793d
000002e0: ad4d d3bd 1d01 d8ba eb87 04be 73f1 a93c
000002f0: 65b1 67be 0b7b ca3c 3925 b7bd 0a72 5ebe
00000300: d9e1 cf3c 301c 6bbc 9793 ba3d b958 3dbd
00000310: 293a b83d c1c8 e03d 2dd3 a1bc 8149 493b
00000320: e3ba c8bd 88a3 b13c ba3d b3bd 9e7c 3dbd
00000330: b18e e2bd 88df 29be 8d72 0dbd 76f8 3f3e
00000340: ed3d df3b 697d c93c c4e2 b53d 4a4f dcbd
00000350: 79a7 f9bd 3cdf 453d f695 b9bd cf83 04be
00000360: 7395 423b f42d 13be 1452 df3c 4dfd 233e
00000370: ff4d 8cbc 509d ebb9 281a 29be 1142 513d
00000380: 551f 3abe 3c08 8b3d 0ef7 4dbd 6b41 8a3d
00000390: 2da7 153e ac09 a13b 2314 9d3d 3c20 15be
000003a0: 2736 f6bd a57b cebd d40f 173e f8fd 543d
000003b0: 078b ae3d c8d0 103e e11e e53d 3951 32be
000003c0: 1222 e73c f945 84bb bdaf aa3d 3cf6 05bd
000003d0: 4c43 10be ec7e 1a3c 268c 75bd ecac 36be
000003e0: 98e1 25be e3b5 05be d3f4 13be e0cf 9c3d
000003f0: ee78 b53d 011c 03be ff53 36be 957e 86bd

fc3.weight f4 [128, 256]
0.012238363 -0.07951221 -0.12949672 0.06421299 -0.055504333 -0.059916753 0.050993573 -0.029476434
0.08814601 0.04271531 -0.015229373 -0.21979341 0.009066606 0.011139768 -0.22298917 0.12340009
0.07530113 0.067825 0.052364733 0.12837553 0.041919507 -0.16760822 -0.025090225 0.07774341
-0.04973927 0.034212396 -0.17675577 -0.049075037 0.032017533 0.03137309 -0.11124294 -0.06774325
0.037357002 0.028742699 0.031255417 0.09578308 -0.06879195 0.09052707 0.103238925 0.2690075
-0.05960996 -0.07240454 0.03281583 -0.055245295 -0.27436534 0.17136356 -0.13542362 0.045612477
-0.016573468 -0.044661295 -0.057905544 -0.025949871 -0.09642977 -0.002521627 -0.17776237 -0.057385795
0.0025195652 -0.048206862 -0.06838924 0.08489007 0.14123528 0.1159094 0.10738687 0.06961083
0.15052469 0.016207721 0.112460144 0.027754404 -0.14622773 -0.008599359 0.14994407 -0.14901301
-0.034339312 0.08436547 -0.12531388 -0.13787954 0.058222022 -0.021381458 0.003028416 -0.042926993
-0.1120476 0.06360941 0.079188764 -0.03065027 0.00086431083 -0.09755125 0.008571085 -0.059839964
-0.06724897 -0.0055062664 0.06196083 -0.13923456 0.119433485 -0.13037491 0.008546968 0.0073967786
0.15306981 -0.07849157 -0.069844976 0.00015363278 0.08316633 -0.031386588 0.09763513 -0.03827015
-0.09339608 0.14085269 0.12607725 0.012074133 -0.20057178 -0.014201804 -0.032001007 -0.019274322
-0.25053167 0.112116024 -0.1274601 -0.052440993 0.023134405 -0.041715562 -0.09643495 0.018556604
-0.18557575 -0.12915795 -0.099368624 0.00019369861 0.0051397025 0.054918002 -0.020266186 0.1316085
-0.036571357 0.009743589 0.15095694 -0.08222781 0.06560833 0.036474895 0.029667547 0.084610365
0.025662726 0.013554793 -0.1605633 -0.04677473 -0.12661208 -0.28582507 -0.09431479 -0.20840052
0.14462936 0.040820632 0.018253608 -0.06996615 -0.06806566 -0.021484911 -0.07005605 -0.053817037
-0.03299012 -0.10165171 -0.0317088 -0.08336686 0.026359655 -0.10200525 -0.10191875 -0.16437581
0.066228606 0.012593245 -0.1611858 0.05183649 0.04251266 -0.05330826 -0.010856048 0.13715643
0.043221444 -0.16274992 -0.28188074 0.02685141 -0.061860375 0.044972543 0.020402618 -0.21093884
0.05801226 -0.12467544 0.013197799 -0.12481899 -0.045187235 0.11064691 -0.121096365 0.057385027
-0.0022516283 -0.061745256 -0.07864859 -0.0003243987 -0.010798612 0.075068645 -0.008538205 -0.14628176
-0.035865046 0.03667234 0.008865136 0.13158375 -0.12653577 -0.095437154 0.1149884 0.07893798
-0.040822603 -0.32283238 0.033290945 -0.0014487813 0.16424908 -0.074325934 0.021340096 -0.25126615
0.04798384 0.022904256 -0.14790978 -0.20503056 -0.04682786 -0.11396972 -0.01983295 0.0049594566
-0.12085822 0.14893863 0.15796891 0.057529353 0.047766667 0.050495185 0.09222906 -0.01812389
-0.12993766 -0.09498006 -0.097769834 0.08600152 -0.0051452112 0.10900323 -0.005231023 -0.05070302
0.07246479 -0.04410088 -0.024482498 -0.014598679 0.06729661 -0.16261677 0.040718414 0.002171421
-0.0033915122 0.10488705 -0.11137441 0.0903034 -0.0764674 0.0064018797 0.0745424 -0.10562322
-0.0062690964 0.123301424 -0.2548081 -0.0083524445 0.033691425 0.05334129 -0.26698282 -0.37326723
00000000: 6a83 483c 4cd7 a2bd ca9a 04be 1a82 833d
00000010: 8358 63bd 456b 75bd a3de 503d 9078 f1bc
00000020: e585 b43d 40f6 2e3d 9f84 79bc 8611 61be
00000030: 1a8c 143c 9383 363c 4657 64be 30b9 fc3d
00000040: 7b37 9a3d d5e7 8a3d 677c 563d e074 033e
00000050: cab3 2b3d 7da1 2bbe 048a cdbc f037 9f3d
00000060: 68bb 4bbd 4c22 0c3d 77ff 34be e802 49bd
00000070: d124 033d 1281 003d 57d3 e3bd f9bc 8abd
00000080: a803 193d cf75 eb3c ae05 003d eb29 c43d
00000090: cbe2 8cbd 4266 b93d ee6e d33d 5abb 893e
000000a0: 9329 74bd d548 94bd e469 063d e448 62bd
000000b0: 9d79 8cbe ee79 2f3e 7dac 0abe 26d4 3a3d
000000c0: 15c5 87bc c3ee 36bd 5d2e 6dbd d394 d4bc
000000d0: f97c c5bd e141 25bb 5707 36be 5e0d 6bbd
000000e0: 4a1f 253b 8f74 45bd a80f 8cbd d8da ad3d
000000f0: fb9f 103e e861 ed3d a6ed db3d 1f90 8e3d
00000100: 2523 1a3e 0ec6 843c 8151 e63d 345d e33c
00000110: b9bc 15be 53e4 0cbc f08a 193e de96 18be
00000120: 61a7 0cbd cec7 ac3d 4852 00be 4b30 0dbe
00000130: 377a 6e3d 2b28 afbc 6478 463b 37d4 2fbd
00000140: 3679 e5bd a645 823d b82d a23d 4616 fbbc
00000150: eb92 623a f3c8 c7bd bc6d 0c3c c01a 75bd
00000160: d4b9 89bd e96d b4bb a4ca 7d3d 8193 0ebe
00000170: 8b99 f43d 0081 05be 9508 0c3c ad60 f23b
00000180: 55be 1c3e 30c0 a0bd e20a 8fbd 7c18 2139
00000190: 1c53 aa3d 398f 00bd edf4 c73d 29c1 1cbd
000001a0: 7246 bfbd b03b 103e 651a 013e 96d2 453c
000001b0: b062 4dbe afae 68bc 7d13 03bd 2fe5 9dbc
000001c0: b045 80be 169d e53d e784 02be 5ecc 56bd
000001d0: 5d84 bd3c f0dd 2abd b07f c5bd 0504 983c
000001e0: 9207 3ebe fb41 04be c781 cbbd 931b 4b39
000001f0: f36a a83b b3f1 603d 4605 a6bc 61c4 063e
00000200: d9cb 15bd 93a3 1f3c 7594 1a3e 0e67 a8bd
00000210: a95d 863d b366 153d 5b09 f33c 3348 ad3d
00000220: a33a d23c ec14 5e3c b56a 24be dc96 3fbd
00000230: 99a6 01be aa57 92be 1d28 c1bd f266 55be
00000240: b819 143e 8933 273d 9788 953c 6a4a 8fbd
00000250: 0266 8bbd 2001 b0bc 8c79 8fbd 416f 5cbd
00000260: a620 07bd c62e d0bd 16e1 01bd 3fbc aabd
00000270: 34f0 d73c 21e8 d0bd c7ba d0bd 2252 28be
00000280: dda2 873d e653 4e3c e40d 25be 8052 543d
00000290: c121 2e3d c359 5abd 91dd 31bc bc72 0c3e
000002a0: f808 313d eaa7 26be ac52 90be 7df7 db3c
000002b0: 4e61 7dbd 2135 383d 6423 a73c 5a00 58be
000002c0: 439e 6d3d d655 ffbd 953b 583c 19a1 ffbd
000002d0: 4016 39bd d99a e23d 5f01 f8bd 900c 6b3d
000002e0: 0e90 13bb 98e8 7cbd 8312 a1bd 0e14 aab9
000002f0: a9ec 30bc 97bd 993d d4e3 0bbc e3ca 15be
00000300: 3ae7 12bd bc35 163d 133f 113c e4bd 063e
00000310: 9892 01be 8e74 c3bd 0a7f eb3d 3caa a13d
00000320: 9a35 27bd 494a a5be 165c 083d 09e5 bdba
00000330: e930 283e 3238 98bd 6dd1 ae3c f5a5 80be
00000340: b48a 443d b5a1 bb3c a975 17be 88f3 51be
00000350: 92ce 3fbd f568 e9bd b678 a2bc f082 a23b
00000360: 8484 f7bd 5e83 183e 9ac2 213e e6a3 6b3d
00000370: fba6 433d 0ad4 4e3d 97e2 bc3d 8d78 94bc
00000380: 610e 05be e884 c2bd 8d3b c8bd 9121 b03d
00000390: 2999 a8bb 163d df3d 0069 abbb f8ad 4fbd
000003a0: 6b68 943d 20a3 34bd 858f c8bc 4c2f 6fbc
000003b0: ced2 893d 0385 26be 5ac8 263d 664e 0e3b
000003c0: 2244 5ebb 06cf d63d 4418 e4bd fdf0 b83d
000003d0: f19a 9cbd dcc6 d13b b0a9 983d fd50 d8bd
000003e0: fe6c cdbb 7585 fc3d 3576 82be b1d8 08bc
000003f0: 0500 0a3d 667c 5a3d f9b1 88be e21c bfbe

fc3.bias f4 [128]
-0.20013155 0.14236575 -0.102456465 -0.095755436 -0.06655053 -0.2374352 0.19441624 -0.11272831
-0.13918503 0.36164516 -0.27265453 0.28316778 0.10002896 0.118741415 -0.18634476 -0.16842648
-0.2114933 -0.24207708 0.13434193 0.19533329 0.10310678 -0.13883659 -0.15614277 -0.027701652
-0.11266089 0.2099987 -0.12921512 0.062399026 0.06636603 0.005646521 -0.17072767 -0.2006756
0.22759746 -0.19486822 0.21047628 -0.1275634 0.36773306 0.38924402 0.08826628 0.14690654
0.25036076 -0.17653194 -0.13481322 -0.18541482 -0.07583316 -0.18662027 0.17692028 -0.10841405
-0.34739774 0.02349104 -0.058392975 -0.23167518 -0.06083524 0.12516874 -0.21219482 0.22868787
0.06347356 -0.21957481 0.32827145 0.13978046 0.31300434 0.059673864 0.30583262 -0.10285741
-0.14135484 -0.21653087 0.35159114 0.34997308 0.19545725 0.09420455 0.22821432 0.07024318
0.15380494 0.22698583 0.26353186 -0.19191636 -0.19554263 -0.25195473 0.31462026 -0.18875536
-0.22452037 -0.22622015 -0.2506749 -0.13567822 0.34331408 0.14274208 -0.04430885 -0.11724684
-0.07796848 -0.23840512 0.2575741 -0.2276446 0.1291867 0.28243697 -0.15346947 0.038589254
-0.1772106 0.1291183 0.16404346 -0.13337758 -0.1975232 -0.16643842 -0.1493251 -0.14285879
-0.15878889 -0.035513584 0.27096373 0.13003437 -0.08231337 0.18533033 -0.12579298 -0.14259636
0.2976201 -0.23969424 0.03882651 0.19353773 0.2916991 -0.096055105 -0.22917522 0.18744986
-0.22739479 -0.024290545 -0.16214848 0.07368639 -0.1973229 -0.23565994 0.22518946 -0.21774286
00000000: 49ef 4cbe 54c8 113e b2d4 d1bd 6d1b c4bd
00000010: a54b 88bd 3722 73be 0d15 473e 1ade e6bd
00000020: 8586 0ebe 8e29 b93e 6099 8bbe 5efb 903e
00000030: fcdb cc3d b32e f33d 29d1 3ebe fe77 2cbe
00000040: b391 58be 0ee3 77be ee90 093e 7305 483e
00000050: a629 d33d 2e2b 0ebe e4e3 1fbe 93ee e2bc
00000060: c1ba e6bd e609 573e f850 04be 1f96 7f3d
00000070: eaea 873d 7406 b93b 3cd3 2ebe e87d 4dbe
00000080: 4f0f 693e 898b 47be 1887 573e fb9f 02be
00000090: 8247 bc3e fe4a c73e f4c4 b43d ab6e 163e
000000a0: 492f 803e cac4 34be 7a0c 0abe 62dd 3dbe
000000b0: 6a4e 9bbd 6219 3fbe 972a 353e 2f08 debd
000000c0: 1ede b1be 4870 c03c 792d 6fbd 423c 6dbe
000000d0: 5f2e 79bd 3c2c 003e 9949 59be 272d 6a3e
000000e0: 6dfe 813d 38d8 60be 3213 a83e 9c22 0f3e
000000f0: 1b42 a03e 956c 743d 1896 9c3e e8a6 d2bd
00000100: 53bf 10be 45ba 5dbe c103 b43e ac2f b33e
00000110: f225 483e 51ee c03d 04b1 693e a8db 8f3d
00000120: 0b7f 1d3e f96e 683e a6ed 863e b985 44be
00000130: 543c 48be 3600 81be e815 a13e 1649 41be
00000140: abe8 65be 41a6 67be 7658 80be 3bef 0abe
00000150: ddc6 af3e fb2a 123e 327d 35bd 1c1f f0bd
00000160: f0ad 9fbd 7920 74be c1e0 833e ab1b 69be
00000170: 8549 043e 949b 903e 1a27 1dbe c40f 1e3d
00000180: b276 35be 9637 043e 02fb 273e 2294 08be
00000190: 8643 4abe d56e 2abe aee8 18be 9349 12be
000001a0: 8e99 22be b176 11bd c2bb 8a3e bb27 053e
000001b0: ea93 a8bd 3cc7 3d3e e0cf 00be c804 12be
000001c0: a961 983e 6872 75be 8c08 1f3d c12e 463e
000001d0: 9659 953e 8ab8 c4bd e9ac 6abe dbf2 3f3e
000001e0: 2eda 68be f7fc c6bc 400a 26be e4e8 963d
000001f0: 040f 4abe d750 71be 1198 663e fcf7 5ebe

fc4.weight f4 [1, 128]
-0.16517675 0.06091716 -0.21336342 -0.06689821 -0.08559887 -0.09343614 0.13118963 -0.0542062
-0.08860309 0.13548493 -0.09882495 0.10435193 0.07275192 0.06196917 -0.10784323 -0.19276612
-0.21656005 -0.15019812 0.06980708 0.11168883 0.21701667 -0.07240636 -0.100196406 -0.11178751
-0.06412538 0.11547473 -0.124445416 0.14458789 0.0696496 -0.18596137 -0.07846818 -0.13475507
0.11058208 -0.1905758 0.08865984 -0.079054445 0.16477141 0.14627337 0.13803145 0.09936013
0.1280596 -0.10468634 -0.1263126 -0.073346466 -0.13414736 -0.11387796 0.083340615 -0.069763355
-0.1099434 0.0780651 -0.17559709 -0.10888361 -0.25082913 0.09910801 -0.24321494 0.11822783
0.12318605 -0.07793708 0.13217203 0.07864407 0.11188623 0.11728652 0.15843777 -0.0658476
-0.11124416 -0.090710685 0.08938997 0.119981006 0.08853186 0.10169449 0.07900433 0.1318293
0.060282674 0.07206968 0.098673396 -0.06702269 -0.09948404 -0.18185231 0.11821595 -0.08292704
-0.13871345 -0.13567245 -0.09841046 -0.19655903 0.17932925 0.09428184 0.05790988 -0.24558498
-0.17704353 -0.22969367 0.11987878 -0.08353988 0.060652282 0.079379596 -0.16839622 0.12292463
-0.12049735 0.13944878 0.07207973 -0.059075348 -0.069484524 -0.101344205 -0.18387623 -0.24371156
-0.066476926 -0.13079062 0.085538335 0.11093556 -0.18635426 0.116905496 -0.09347457 -0.17094913
0.16878328 -0.12604354 0.0950635 0.16707978 0.11149201 -0.044898286 -0.06678816 0.07557925
-0.06975233 -0.12853166 -0.060359564 0.07853991 -0.061432943 -0.118358724 0.13002008 -0.054183006
00000000: 1824 29be 4684 793d f17b 5abe ee01 89bd
00000010: 764e afbd 725b bfbd 9356 063e 5207 5ebd
00000020: 8975 b5bd 90bc 0a3e bc64 cabd 77b6 d53d
00000030: f5fe 943d 62d3 7d3d e9dc dcbd 7b64 45be
00000040: ebc1 5dbe 89cd 19be 04f7 8e3d 1dbd e43d
00000050: 9e39 5e3e c949 94bd c633 cdbd daf0 e4bd
00000060: 2b54 83bd 047e ec3d 3ddd febd d90e 143e
00000070: 73a4 8e3d a86c 3ebe edb3 a0bd 3cfd 09be
00000080: dc78 e23d 4d26 43be 4a93 b53d 4ce7 a1bd
00000090: d6b9 283e b0c8 153e 1e58 0d3e 537d cb3d
000000a0: 0e22 033e cb65 d6bd 1758 01be ac36 96bd
000000b0: ed5d 09be d938 e9bd 7cae aa3d 17e0 8ebd
000000c0: 012a e1bd 98e0 9f3d b9cf 33be 5ffe debd
000000d0: ad6c 80be 24f9 ca3d 560d 79be 6f21 f23d
000000e0: f848 fc3d 7a9d 9fbd 1b58 073e 2410 a13d
000000f0: 9c24 e53d ea33 f03d 833d 223e 1bdb 86bd
00000100: fad3 e3bd 86c6 b9bd 1712 b73d 9ab8 f53d
00000110: 3150 b53d 3345 d03d 06cd a13d 43fe 063e
00000120: f7ea 763d 4599 933d 4715 ca3d 3143 89bd
00000130: 4abe cbbd 7e37 3abe 341b f23d a7d5 a9bd
00000140: e60a 0ebe b8ed 0abe 6c8b c9bd c546 49be
00000150: 16a2 373e d616 c13d e932 6d3d a17a 7bbe
00000160: e64a 35be d134 6bbe 0183 f53d f516 abbd
00000170: 876e 783d c591 a23d 0f70 2cbe e9bf fb3d
00000180: 51c7 f6bd a9cb 0e3e 8a9e 933d fef8 71bd
00000190: e74d 8ebd 8d8d cfbd 0d4a 3cbe 868f 79be
000001a0: 0e25 88bd faed 05be b92e af3d 2f32 e33d
000001b0: a7d3 3ebe 266c ef3d 986f bfbd 4a0d 2fbe
000001c0: 86d5 2c3e 8f11 01be a7b0 c23d f616 2b3e
000001d0: ec55 e43d 44e7 37bd 3bc8 88bd 4bc9 9a3d
000001e0: 4fda 8ebd ce9d 03be 973b 77bd 88d9 a03d
000001f0: 1ca1 7bbd 0f66 f2bd fc23 053e 00ef 5dbd
